Three_Body_Problem/PINN/pinn_2d_model.pt (torch, 820197 bytes, 10 tensors)

f.0.weight f4 [256, 18]
0	0x3d63b68f	0.055594023
1	0xbd49b165	-0.049241442
2	0xbd4a12d8	-0.049334377
3	0x3d698c2a	0.057018436
4	0x3d863288	0.06552607
5	0x3c50634d	0.012718988
6	0xba1897c3	-0.0005820954
7	0xbc176d40	-0.009242356
8	0x3c0361cc	0.008018922
9	0x3ca8144f	0.020517496
10	0xbd407e95	-0.046995718
11	0xbc18cf43	-0.009326759
12	0x3ce8cce3	0.02841801
13	0xbaf3850e	-0.0018579082
14	0x3d5697f0	0.052390993
15	0x38507c42	4.970679e-05
16	0x3c86e9aa	0.016468842
17	0xbd70b546	-0.058766626
18	0xbea63ce8	-0.32468343
19	0xbea4019e	-0.32032484
20	0xbe84210a	-0.25806457
21	0x3ef72be3	0.4827567
22	0xbe4fd738	-0.20296943
23	0xbe8d6712	-0.276177
24	0xbac066a3	-0.0014679026
25	0xba3d725e	-0.000722682
26	0x3bd556af	0.0065105776
27	0x3b775bda	0.0037743957
28	0xbcc84508	-0.02444698
29	0x3bf5bf60	0.0074996203
30	0x3b7c4a77	0.0038496533
31	0x3c7a02c9	0.015259453
32	0x3c80ad73	0.015707707
33	0x3bb02841	0.0053758924
34	0xbba46e5b	-0.005018038
35	0xbc076044	-0.008262698
36	0x3c20a90b	0.009805928
37	0x3d84aec9	0.0647865
38	0xbca15250	-0.01969257
39	0xbc92bb6e	-0.017911639
40	0x3bc0ed6e	0.005887679
41	0x3c097544	0.008389775
42	0x3ce8f318	0.028436229
43	0xbda5f12c	-0.081026405
44	0x3dabc62e	0.08387409
45	0x3cadde71	0.021224232
46	0xbddd568d	-0.10807524
47	0xbd2ef187	-0.042710807
48	0x3b2bf498	0.0026238319
49	0x3c98020f	0.01855567
50	0x3ca8b901	0.02059603
51	0xbc68112c	-0.01416425
52	0xbc053560	-0.008130401
53	0x3c888cc4	0.016668685
54	0x3c043c8c	0.008071076
55	0x3d954df1	0.07290257
56	0x3c897c94	0.016783036
57	0xbcf9db09	-0.030499952
58	0x3c0d3914	0.0086195655
59	0x3d871039	0.06594891
60	0x3c493e23	0.012282881
61	0xbd2a8a47	-0.041635778
62	0x3c1def1c	0.009639528
63	0xbc77a247	-0.0151143735
64	0xbd802795	-0.0625755
65	0xbcb5771d	-0.022151524
66	0x3d62fa60	0.055414557
67	0xbcb05057	-0.021522684
68	0x3d262ca2	0.04056991
69	0xbce50dbc	-0.02796065
70	0xbd533a24	-0.05156912
71	0xbc6269ac	-0.013819139
72	0x3d6f8ebb	0.058485728
73	0x3c8784bd	0.016542787
74	0xbdaab21b	-0.08334752
75	0x3cf2138f	0.029550342
76	0x3dc7ab8d	0.097495176
77	0x3c3be0f4	0.011467207
78	0xbc56b57f	-0.0131047955
79	0xbb646fdc	-0.0034856712
80	0xbcd3b07b	-0.025840988
81	0x3bb00906	0.0053721694
82	0xbd5444c6	-0.0518234
83	0xba54b2b5	-0.00081137876
84	0xbcebcbb7	-0.028783662
85	0x3b7698d1	0.0037627707
86	0xbba1b63e	-0.004935055
87	0xbc9aa100	-0.018875599
88	0xbd0d5164	-0.03450145
89	0x3b6ebf53	0.0036429956
90	0xbbdcab17	-0.0067342627
91	0x3be8cfae	0.0071048355
92	0xbe194438	-0.1496743
93	0xbdcc8b85	-0.09987549
94	0x3e057d3f	0.13036059
95	0xbdd5985f	-0.10429453
96	0xbd40f39f	-0.047107335
97	0x3c126bd5	0.008936842
98	0x3d05268b	0.03250746
99	0x3d6a4de0	0.057203174
100	0x3c388408	0.011261947
101	0xbc326063	-0.010887238
102	0xbd8dbdb6	-0.0692095
103	0xbc9e592e	-0.019329634
104	0x3cfd44fb	0.030916682
105	0xbd151303	-0.036395084
106	0xbc9fe8c8	-0.019520178
107	0xbc1ed2d1	-0.009693817
108	0xbf08e394	-0.53472257
109	0xbef60b94	-0.48055708
110	0x3e71dc37	0.23619162
111	0xbea15111	-0.3150716
112	0x3d325de1	0.04354656
113	0xbebdbd39	-0.37058428
114	0x3b764bf3	0.003758189
115	0xbc80945f	-0.015695749
116	0x3d0994ee	0.033589296
117	0x3c951bad	0.018201673
118	0xbd53debc	-0.051726088
119	0xbb9a2a89	-0.0047047776
120	0x3cb4b09b	0.022056868
121	0xbb81dd9b	-0.003963185
122	0xbcd61ccf	-0.026136784
123	0x3d1d8222	0.038454182
124	0xbc1ad82e	-0.009450955
125	0x3cf160e0	0.029465139
126	0xbd863f04	-0.06554988
127	0xbe6140ae	-0.2199733
128	0x3ca2546a	0.019815642
129	0x3e4fe7c4	0.20303255
130	0xbd8c2710	-0.06843388
131	0x3e6243b9	0.22096147
132	0x3c9e700e	0.019340541
133	0xbcc95ab0	-0.024579376
134	0xbc0c424e	-0.00856073
135	0x3bcf65d1	0.006329276
136	0xbc8dde99	-0.017318057
137	0xbd83a7d0	-0.06428492
138	0xbd47d1ca	-0.048784055
139	0x3c167d45	0.00918514
140	0x3b49983f	0.0030760912
141	0x3c405544	0.011739079
142	0xbd229d6d	-0.039700914
143	0x3ca1840f	0.01971629
144	0xbdf536da	-0.11973353
145	0x3ddc2e1a	0.10750981
146	0xbc708f94	-0.014682669
147	0xbdd9580a	-0.10612495
148	0x3d27e033	0.040985297
149	0xbdb14c9d	-0.08657191
150	0xbcdae398	-0.026719853
151	0xbb44e906	-0.003004612
152	0x3ca90e7a	0.020636786
153	0x3ba24d93	0.004953095
154	0xbcb96857	-0.02263276
155	0x3c9b4a43	0.01895631
156	0xbcf7978c	-0.03022363
157	0xb98e04f1	-0.00027088032
158	0x3b720e11	0.0036934654
159	0xbc4bd075	-0.012439837
160	0x3b8a4d82	0.0042206654
161	0x3ba6a429	0.0050854874
162	0xbd5b7508	-0.053578407
163	0xbdf27670	-0.118389964
164	0xbdb957f4	-0.09049979
165	0x3c27e398	0.010247134
166	0x3e15e667	0.14638673
167	0x3dffa032	0.12481727
168	0x3c8a9193	0.016915118
169	0x3cf325a3	0.029681033
170	0xbcbedc45	-0.023298392
171	0xbd11334c	-0.03544931
172	0x3aa7f92e	0.001281535
173	0xbd489276	-0.0489678
174	0xbd5fa891	-0.054604117
175	0xbc926edd	-0.01787513
176	0x3c9e47f7	0.019321425
177	0xbd535ab6	-0.05160018
178	0xbd268bfd	-0.040660847
179	0xbc91b01f	-0.017784176
180	0x3ed16dfb	0.4090422
181	0x3ec465a1	0.38358787
182	0x3e1a519c	0.15070194
183	0xbe0853be	-0.13313195
184	0xbe6a66dc	-0.228908
185	0xbee8a8cc	-0.45441282
186	0xbb80d1b2	-0.0039312476
187	0xbd062cd7	-0.032757606
188	0xbbdab11c	-0.006673945
189	0x3af1b10f	0.0018439608
190	0xbcfba0d7	-0.030716343
191	0xbc18d9a1	-0.0093292305
192	0x3d4ab551	0.049489323
193	0xbbc0ada5	-0.005880075
194	0x3d110273	0.035402726
195	0x3a458048	0.0007534069
196	0xbcaa1b49	-0.020764964
197	0xbc07cbd9	-0.008288347
198	0xbdae7a50	-0.08519423
199	0x3e86159d	0.26188365
200	0xbee7ace3	-0.4524909
201	0xbe906a2b	-0.28206
202	0x3f025e15	0.5092481
203	0xbe5bb9bd	-0.21457572
204	0xba1b391c	-0.0005921291
205	0xbbb92861	-0.0056505655
206	0xbaa3a1f9	-0.0012484185
207	0xbc805096	-0.015663426
208	0x3ce9f727	0.028560234
209	0xbc524c85	-0.0128356265
210	0xbd0be370	-0.03415245
211	0x3c44984f	0.011999204
212	0x3d7552ae	0.059893303
213	0xbcda3b65	-0.02663965
214	0xbd1158da	-0.035485126
215	0x3cd03fba	0.025421012
216	0x3e914543	0.28373155
217	0x3ec45e61	0.38353255
218	0x3ead29ab	0.33820853
219	0xbc13383d	-0.008985576
220	0x3ecedab5	0.40401235
221	0xbec94314	-0.3930899
222	0xbcc72d55	-0.024313608
223	0xbc8d2a18	-0.017231986
224	0x3b4cc936	0.003124786
225	0x3a98345b	0.0011612283
226	0xbc51cf8c	-0.012805831
227	0x3c084e57	0.008319459
228	0x3cec58c2	0.028850917
229	0xbd06d246	-0.032915376
230	0xbc28f342	-0.010311903
231	0xbd1fb7b5	-0.038993556
232	0x3cc65592	0.024210725
233	0x3c2d336f	0.010571345
234	0xbb056c60	-0.0020358786
235	0xbd939663	-0.07206418
236	0xbdd0d8d2	-0.10197605
237	0xbbfde2e3	-0.0077479943
238	0x3dd2c6fb	0.10291859
239	0x3cd7d889	0.02634837
240	0x3cef170e	0.029185798
241	0xbd23ede5	-0.040021796
242	0xbcd91105	-0.026497373
243	0x3d209893	0.039208006
244	0x3d1fa0a7	0.03897157
245	0x3bd7c778	0.006585058
246	0xbd7aa063	-0.061188113
247	0xbc0943d4	-0.008377988
248	0x3c54a4c6	0.012978738
249	0xbd41266f	-0.047155794
250	0xbd4ecdd4	-0.05048926
251	0x3c1a5097	0.009418628
252	0x3d0a5579	0.03377292
253	0x3e184ba1	0.148726
254	0xbe9d0aeb	-0.30672392
255	0x3e3d46d0	0.18484044

f.0.bias f4 [256]
0	0xbd41b517	-0.04729184
1	0xbc637be5	-0.013884519
2	0xbe3ad7df	-0.18246411
3	0xbd7687d5	-0.060188133
4	0xbdf093ea	-0.11746962
5	0xbe1c7c9f	-0.15281914
6	0xbe6d3d47	-0.23167907
7	0xbe8891c0	-0.26673698
8	0xbe3ccddb	-0.18437903
9	0xbe458c7f	-0.19291876
10	0xbe1d65a6	-0.15370807
11	0x3c5fdc44	0.013663355
12	0xbd1adc71	-0.037807886
13	0xbe3c468e	-0.1838629
14	0xbfd5e067	-1.6709107
15	0xbdef0e66	-0.11672668
16	0xbe112b63	-0.14176707
17	0xbe1f60d5	-0.15564282
18	0xbe1d7846	-0.15377912
19	0xbe2ec806	-0.1706849
20	0xbe7b59da	-0.24545994
21	0xbdff012c	-0.124513954
22	0xbe20e894	-0.15713722
23	0xbe16b178	-0.14716136
24	0xbe4fa300	-0.20277023
25	0xbe0377da	-0.12838688
26	0xbde4144e	-0.11136685
27	0xbe9a7966	-0.30170745
28	0xbe65ea31	-0.22452618
29	0x3b4d5bb1	0.003133517
30	0xbd9e45f0	-0.07728183
31	0xbe257e36	-0.16161427
32	0xbe679373	-0.22614841
33	0xbd822e8f	-0.063565366
34	0xbe416d41	-0.18889333
35	0xbc8f0a49	-0.017460959
36	0xbb5ba889	-0.0033517203
37	0xbf228a72	-0.634925
38	0xbdc9f8e3	-0.098619245
39	0xbe6a14ef	-0.22859548
40	0xbe585eff	-0.21129988
41	0xbdab60d8	-0.08368081
42	0xbe3d9c4c	-0.18516654
43	0xbdf8034c	-0.12110004
44	0xbe0a9232	-0.13532332
45	0xbe7b0ca1	-0.24516536
46	0xbe3f12a5	-0.18659456
47	0xbdf1193d	-0.11772392
48	0xbd809b2c	-0.06279597
49	0xbdd8b474	-0.10581294
50	0xbd9f6607	-0.07783132
51	0xbe5027ad	-0.20327635
52	0xbe121c5e	-0.14268634
53	0xbe826edb	-0.254752
54	0xbe8113bd	-0.25210372
55	0xbe38fc3e	-0.18064973
56	0xbfa79edd	-1.3095356
57	0x3c8c86ba	0.017154086
58	0xbdb95732	-0.09049834
59	0xbddd8bd5	-0.108176865
60	0xbcc80c6b	-0.024419984
61	0xbdf1897d	-0.11793802
62	0xbe2fccf4	-0.17168027
63	0xbe1656ce	-0.14681551
64	0xbe3f80d0	-0.18701482
65	0xbd9594c5	-0.07303766
66	0xbe194ef8	-0.1497153
67	0xbd2a6b7f	-0.041606423
68	0xbeab2891	-0.33429387
69	0xbe44daa6	-0.19224033
70	0xbe677b6a	-0.22605672
71	0xbe6db11d	-0.23212095
72	0xbe4dd81e	-0.20101973
73	0xbe3bedfb	-0.18352501
74	0xbe17ca7b	-0.14823334
75	0xbe44dd91	-0.19225146
76	0xbe120cb5	-0.1426266
77	0xbe71831c	-0.2358517
78	0xbb90bb7f	-0.0044168825
79	0xbe129cfd	-0.14317699
80	0xbf6fdc0f	-0.9369516
81	0xbe973a14	-0.29536498
82	0xbe334476	-0.17506585
83	0xbe070cb9	-0.13188447
84	0xbdcb97c3	-0.099410556
85	0xbe033d75	-0.12816413
86	0xbe5a0c49	-0.21293749
87	0xbdbbd6e9	-0.0917185
88	0xbe4c6784	-0.19961363
89	0xbe368210	-0.17823052
90	0xbdfd2613	-0.12360778
91	0xbe331fa7	-0.17492543
92	0xbe3002d8	-0.17188585
93	0x3c8d1740	0.017223
94	0xbe00e600	-0.12587738
95	0xbf07525c	-0.52860045
96	0xbda2e6c5	-0.07954172
97	0xbe16ce9f	-0.14727257
98	0xbe26bf90	-0.16284013
99	0xbd98aa63	-0.07454374
100	0xbe94a679	-0.2903326
101	0xbdd30253	-0.10303178
102	0xbe12a9ab	-0.14322536
103	0x3c969ef4	0.018386342
104	0xbc201847	-0.009771413
105	0xbe01c545	-0.12672909
106	0xbe4f8f16	-0.20269427
107	0xbdcb8652	-0.09937729
108	0xbc8989bf	-0.016789315
109	0xbe11fa0a	-0.14255539
110	0xbe109bfa	-0.14122
111	0x3e224687	0.15847217
112	0xbe1eb023	-0.15496878
113	0xbdec92f8	-0.115514696
114	0xbd1a0ae7	-0.037608054
115	0xbe2288c2	-0.15872481
116	0xbe20554b	-0.15657537
117	0xbe3f4a26	-0.18680629
118	0xbea1c34b	-0.3159431
119	0xbdf6de3e	-0.12054108
120	0xbdcb4bb9	-0.09926552
121	0xbe495871	-0.19662644
122	0x3cf10708	0.029422298
123	0x3d134907	0.035958316
124	0xbe12da6b	-0.14341132
125	0xbe057c45	-0.13035686
126	0xbe1e08f4	-0.15433103
127	0xbe3b37f6	-0.18283066
128	0xbe83a84f	-0.25714347
129	0xbe7ddbf5	-0.24790938
130	0x3d5238ed	0.05132382
131	0xbe1b0e23	-0.15142111
132	0xbe008b86	-0.12553224
133	0xbe39514e	-0.18097422
134	0xbe377d6a	-0.17918935
135	0xbe02e24d	-0.1278164
136	0xbded7da0	-0.11596227
137	0xbe5f509e	-0.21808097
138	0xbe0edec8	-0.13952172
139	0xbe0c2ddf	-0.13689373
140	0xbd578bea	-0.052623667
141	0xbe7487c7	-0.2387992
142	0xbdc922ac	-0.09821066
143	0xbe049b6b	-0.12949912
144	0xbca764a7	-0.020433737
145	0xbe177de9	-0.14794125
146	0xbe5df443	-0.2167521
147	0xbe29ad0b	-0.16569917
148	0xbe698280	-0.22803688
149	0xbe1f15a6	-0.15535602
150	0xbd973d32	-0.07384719
151	0xbe1181d0	-0.14209676
152	0xbe148473	-0.1450365
153	0xbf17a95f	-0.59242815
154	0xbca1f4a9	-0.019769983
155	0xbe22f489	-0.15913595
156	0xbe25e473	-0.16200428
157	0x3dc63bde	0.096793875
158	0xbff76936	-1.9328983
159	0xbe10b583	-0.14131741
160	0xbdb898a3	-0.09013488
161	0xbe1bdeac	-0.15221661
162	0xbe0770d5	-0.13226636
163	0xbe18156f	-0.14851926
164	0xbe534928	-0.20633376
165	0xbe308f76	-0.17242226
166	0xbddec648	-0.10877663
167	0xbda4f09e	-0.080537066
168	0xbe191716	-0.14950213
169	0xbe2ab1bf	-0.16669367
170	0xbdb85171	-0.08999909
171	0xbe453265	-0.19257505
172	0x3d782431	0.06058139
173	0xbe9d9bb6	-0.3078286
174	0xbe5b0a9c	-0.21390766
175	0xbd9a4361	-0.07532383
176	0xbdb4c8b6	-0.08827345
177	0xbe6887cc	-0.22708052
178	0xbea0789f	-0.31342027
179	0xbe1fe864	-0.15615994
180	0xbe5f4096	-0.21801981
181	0xbdb475fd	-0.08811567
182	0x3cdb5944	0.026775964
183	0xbd9ee584	-0.077586204
184	0xbe18d09b	-0.14923327
185	0xbe1901a6	-0.14942035
186	0xbe24787d	-0.16061588
187	0xbe742d5f	-0.23845433
188	0xbe40fb44	-0.1884585
189	0xbe3d946e	-0.18513653
190	0xbe182743	-0.14858727
191	0xbdad0a5e	-0.08449243
192	0xbe38fbf6	-0.18064865
193	0xbd8578b8	-0.06517166
194	0xbe150fcf	-0.14556812
195	0xbe11dffa	-0.14245597
196	0xbe222c21	-0.15837146
197	0xbcc3dd69	-0.023909288
198	0xbea87db9	-0.3290842
199	0xbe053f1a	-0.13012353
200	0xbd6e1977	-0.058129754
201	0xbe525a92	-0.20542362
202	0xbe73cc49	-0.23808397
203	0xbe01da31	-0.1268089
204	0xbe104c06	-0.140915
205	0xbe8d26d5	-0.2756869
206	0xbe377d31	-0.1791885
207	0x3bc7b969	0.0060951007
208	0xbebf2b1f	-0.37337586
209	0xbe08641e	-0.13319442
210	0xbde47cc5	-0.111566104
211	0xbe9d62e1	-0.307395
212	0xbe3952c9	-0.18097986
213	0xbd945a04	-0.072437316
214	0xbfe605e4	-1.7970548
215	0xbe6d5472	-0.23176745
216	0xbd6db83e	-0.058037035
217	0xbda7979a	-0.081832126
218	0xbe3a38fc	-0.181858
219	0xbc73e038	-0.014885001
220	0xbc012e29	-0.007884541
221	0xbe345f3f	-0.17614459
222	0xbe0ff583	-0.14058499
223	0xbe053d33	-0.13011627
224	0xbc989e7c	-0.018630259
225	0xbdf6bb98	-0.120474994
226	0xbd4e4191	-0.050355498
227	0xbddd3dc5	-0.10802797
228	0xbe044f9d	-0.12920995
229	0xbe156d6d	-0.14592524
230	0x3b9720b0	0.004612051
231	0xbe1cab4f	-0.15299724
232	0xbfcc1cba	-1.5946267
233	0xc055d9e6	-3.3414245
234	0xbf13f6c0	-0.57798386
235	0xbdf7347e	-0.12070559
236	0xbdea5247	-0.114414744
237	0xbe026e0d	-0.12737294
238	0xbe33f68a	-0.17574516
239	0xbdc59b2c	-0.09648737
240	0xbdb93905	-0.09044079
241	0xbe56534f	-0.20930217
242	0xbe307388	-0.17231572
243	0xbda738b8	-0.08165115
244	0xbda439eb	-0.080188595
245	0xbdf35d55	-0.11883036
246	0xbe3a1450	-0.18171811
247	0xbe2500cf	-0.1611359
248	0xbe04e272	-0.12977007
249	0xbe43e17b	-0.19128983
250	0xbe27f094	-0.16400367
251	0xbdf91c94	-0.12163654
252	0xbd5b238f	-0.05350071
253	0x3d4017fa	0.046897866
254	0xbe2db44c	-0.16963309
255	0xbe386f6b	-0.18011253

f.2.weight f4 [256, 256]
0	0xbce1af3f	-0.027549384
1	0x3cda9f20	0.026687205
2	0x3e1cb12b	0.15301959
3	0xbcd3c2a6	-0.025849652
4	0x3d95f644	0.07322362
5	0x3d15641a	0.036472417
6	0x3d3c845b	0.04602466
7	0xbd1f5343	-0.038897764
8	0xbcad248d	-0.021135593
9	0xbd880b1d	-0.06642745
10	0x3c533a65	0.01289234
11	0xbcac24ad	-0.021013582
12	0xbcfcff9d	-0.030883605
13	0xbe20f5b2	-0.15718725
14	0x3b8779d4	0.004134396
15	0xbd8aa57b	-0.06769844
16	0x3d0116f8	0.031516045
17	0xbbbfe79c	-0.0058564674
18	0x3d851d6f	0.06499755
19	0x3baa64ac	0.0051999893
20	0x3d7bc7f7	0.06147
21	0x3d1e9d8c	0.038724467
22	0x3c8bf764	0.017085738
23	0xbcae6cd8	-0.021292135
24	0x3dbc5c38	0.09197277
25	0x3bb4a118	0.005512368
26	0xbce17180	-0.027519941
27	0xbd1a598a	-0.037683047
28	0x3d132c52	0.03593094
29	0xbd713f01	-0.058897976
30	0x3d22c9ef	0.03974336
31	0x3bec5c44	0.0072131474
32	0xbd846e75	-0.064663805
33	0xbbc367f9	-0.0059633222
34	0xbde275a7	-0.11057597
35	0x3e028ef1	0.1274984
36	0x3d21b8eb	0.039482992
37	0x3c90632f	0.01762542
38	0x3d845b67	0.06462746
39	0x3da28709	0.07935912
40	0x3ce66f92	0.028129373
41	0x3d083caf	0.033260997
42	0xbd98a629	-0.074535675
43	0xbd3b5c4a	-0.04574231
44	0xbbee3b0f	-0.007270224
45	0xbcd31462	-0.025766555
46	0xbd6aa2ae	-0.05728405
47	0xbd6f6299	-0.05844364
48	0xbc897562	-0.016779605
49	0xbdde6333	-0.108587645
50	0x3bea550c	0.0071512517
51	0x3dbf51d9	0.09341783
52	0xbe0e9e20	-0.13927507
53	0xbc143161	-0.009044976
54	0xbe1a13ee	-0.15046665
55	0x3c75f987	0.015013105
56	0xbd8b02b9	-0.06787629
57	0xbcd00762	-0.025394145
58	0x3d62883f	0.055305716
59	0x3d131be5	0.035915274
60	0x3d5a958f	0.053365286
61	0xbd96d51a	-0.07364865
62	0x3d57ada6	0.05265584
63	0x3d23630a	0.039889373
64	0x3d2759c1	0.04085708
65	0x3caf367a	0.021388281
66	0xbd69f477	-0.057117905
67	0x3bdc465d	0.006722255
68	0x3c1b2e87	0.009471542
69	0xbdaeb9e6	-0.08531551
70	0x3e20eb85	0.15714844
71	0x3db19652	0.086712494
72	0x3cb5ed64	0.022207923
73	0xbd2f7d25	-0.042843957
74	0x3d66bcf7	0.056332555
75	0xbdaaa87e	-0.083329186
76	0xbda9bddb	-0.08288165
77	0x3d0c03f7	0.03418347
78	0xbdbba090	-0.09161484
79	0xbb881e6a	-0.0041540163
80	0x3b1c921d	0.0023890801
81	0x3e1768cd	0.14786072
82	0xbae8e9c0	-0.0017769858
83	0xbc6e7c6a	-0.01455603
84	0x3cbf5604	0.023356445
85	0x3d692d33	0.05692787
86	0xbd0a1a4e	-0.033716492
87	0xbdf84c41	-0.12123919
88	0xbb9d87e4	-0.004807459
89	0xbdb59241	-0.08865786
90	0x3d001a09	0.03127483
91	0xbbb7a8d1	-0.0056048413
92	0x3e00a11a	0.12561455
93	0x3d23e02c	0.04000871
94	0xbd097ba7	-0.03356519
95	0xbd0c0892	-0.03418786
96	0xbd47b890	-0.048759997
97	0x3e270072	0.16308764
98	0xbd4f7450	-0.050648034
99	0x37e567bf	2.7347238e-05
100	0x3d0d47be	0.034492247
101	0xbe33cf55	-0.1755956
102	0xbdf24424	-0.11829403
103	0x3d7bc11a	0.061463453
104	0xbcb0788b	-0.021541854
105	0xbdd22981	-0.102618225
106	0x3de8ae65	0.11361388
107	0xbd3dc07f	-0.046326157
108	0x3cd450f9	0.025917517
109	0x3daf20e1	0.08551193
110	0x3def7a14	0.116932064
111	0x3be1b054	0.006887475
112	0x3c9a52f3	0.018838381
113	0xbd53cc6f	-0.051708635
114	0xbdb91fdf	-0.09039282
115	0xbca35a82	-0.019940618
116	0x3d7d24be	0.06180262
117	0x3ddec7fb	0.10877987
118	0xbce3bbf5	-0.027799586
119	0x3c28daa2	0.010306032
120	0xbd2072c0	-0.039171934
121	0xbe3eafed	-0.18621798
122	0xbd3223c3	-0.043491136
123	0x3d4260ea	0.047455706
124	0x3d41586e	0.047203474
125	0x3cede028	0.02903755
126	0xbe16541f	-0.14680527
127	0x3cb6ac2b	0.022298893
128	0x3d84bac2	0.06480934
129	0xbd587da8	-0.05285421
130	0xbd2d0151	-0.042237584
131	0x3d27a89c	0.040932283
132	0x3df68608	0.12037283
133	0x3cff079d	0.03113156
134	0x3ca4e8ac	0.020130478
135	0x3c81b6fb	0.015834322
136	0xbda1ab5c	-0.07894012
137	0xbd1009fe	-0.03516578
138	0xbe30a19a	-0.17249146
139	0x3dd358cc	0.10319671
140	0xbd6134d0	-0.054982007
141	0xbc8e5fdc	-0.017379694
142	0x3d9eaa43	0.077473186
143	0xbd87cdf8	-0.06631082
144	0xbd151be4	-0.03640355
145	0xbd90c093	-0.070679806
146	0xbc516f97	-0.012782953
147	0xbda73563	-0.081644796
148	0xbda486b8	-0.08033508
149	0xbd81eaed	-0.06343637
150	0xbb47338a	-0.003039571
151	0x3d5bee58	0.0536941
152	0x3d4dbcd0	0.050228894
153	0xbb90bd5e	-0.0044171056
154	0x3df5ceed	0.120023586
155	0xbcaeb1df	-0.02132505
156	0x3c76190a	0.015020618
157	0x3ba04761	0.0048913215
158	0xbdb39de5	-0.0877035
159	0xbdcbf89b	-0.09959527
160	0xbde4ff97	-0.111815624
161	0x3d2e2f99	0.04252586
162	0xbd1cfce3	-0.03832711
163	0xbd0fe635	-0.035131652
164	0x3d5f2393	0.054477286
165	0x3c8b2897	0.016987128
166	0xbd82fdfb	-0.06396099
167	0xbd45a6c3	-0.04825474
168	0xbe01df2b	-0.12682788
169	0xbd862e5e	-0.065518126
170	0xbdaa783e	-0.083237156
171	0xbc677b7b	-0.014128561
172	0x3c07b0d6	0.008281907
173	0xbd9e4051	-0.07727111
174	0xbdf3aec3	-0.118985675
175	0x3cfc0885	0.030765781
176	0xbdc3f0fe	-0.0956745
177	0xbe0e2717	-0.13882099
178	0x3da53d77	0.08068364
179	0xbd046814	-0.03232582
180	0x3d632e77	0.055464234
181	0x3b72df0b	0.0037059214
182	0xbbb97a1e	-0.0056603095
183	0x3d9ee072	0.07757653
184	0x3d2166c9	0.039404664
185	0xbddd67b8	-0.108107984
186	0xbd1ea937	-0.038735595
187	0xbd943bf2	-0.07237996
188	0xbe43ea5d	-0.19132371
189	0xbcf9035a	-0.030397106
190	0x3d8fec6d	0.070275165
191	0x3b237b35	0.0024945263
192	0xbb9d6369	-0.0048031104
193	0x3d5d1b11	0.05398089
194	0xbbeac426	-0.007164496
195	0xbcce1242	-0.02515519
196	0x3ca3f0c8	0.020012274
197	0x3cb92f7f	0.022605656
198	0x3d550a69	0.05201188
199	0x3d4b87fd	0.049690235
200	0x3a9e22d5	0.0012064824
201	0xbd88059f	-0.06641697
202	0xbd950cf4	-0.07277861
203	0x3bd63171	0.0065366556
204	0x3d40c3a9	0.047061596
205	0x3d44b1e5	0.048021216
206	0xbd882e9a	-0.066495135
207	0x3c009c77	0.007849804
208	0xbdb2d11a	-0.08731289
209	0xbd51d0b5	-0.05122443
210	0x3d3d8676	0.04627081
211	0xbced1a19	-0.028943108
212	0x3dcd5a86	0.100270316
213	0xbcb5a009	-0.022171037
214	0xbda1260a	-0.078685835
215	0x3d352efe	0.04423427
216	0xbc366a42	-0.011133732
217	0x3bfe5828	0.007761974
218	0xbdd48e3c	-0.103786916
219	0xbcacc1fc	-0.021088593
220	0x3ce72069	0.028213697
221	0x3d97656c	0.073923916
222	0xbe1f4f01	-0.15557481
223	0xbdfb58d8	-0.12272805
224	0xbcea2ea7	-0.028586699
225	0x3dd642de	0.10461973
226	0xbce3f7ca	-0.027828116
227	0x3cbcfb79	0.02306913
228	0x3d3c9747	0.046042707
229	0x3c043bdd	0.008070913
230	0xbcea2860	-0.028583705
231	0x3d731d87	0.05935433
232	0xbdd38c2c	-0.1032947
233	0xbdc4fba8	-0.09618312
234	0xbc95bbac	-0.018277965
235	0xbdf2bd63	-0.11852529
236	0xbb61f858	-0.00344803
237	0x3cec1475	0.028818348
238	0xbdef6ccf	-0.116906755
239	0xbd44d0d1	-0.048050705
240	0x3e1ff3b8	0.15620315
241	0x3d85551b	0.06510373
242	0x3d1e8471	0.038700525
243	0xbbfb904c	-0.0076771136
244	0xbc71f3c7	-0.014767594
245	0xbc3613f0	-0.011113152
246	0x3cd6d941	0.026226642
247	0x3d045f57	0.032317486
248	0x3db56875	0.08857814
249	0xbd0111a8	-0.03151098
250	0x3d51213e	0.051057093
251	0xbc1de54a	-0.009637186
252	0xbded40de	-0.11584638
253	0x3d98c9fa	0.07460399
254	0x3e1502a6	0.14551792
255	0x3c277305	0.010220294

f.2.bias f4 [256]
0	0xbe1f1afa	-0.15537634
1	0xbe66252f	-0.22475122
2	0x39f6a4e8	0.0004704364
3	0xbe2eff06	-0.17089471
4	0xbe46e4a4	-0.19423157
5	0xbe189200	-0.14899445
6	0xbe507878	-0.20358455
7	0xbe483dec	-0.19554871
8	0xbe1ae48f	-0.1512625
9	0xbe6a8d9a	-0.22905579
10	0xbe657552	-0.22408035
11	0xbe24c4d6	-0.16090712
12	0xbe3f0ba4	-0.18656784
13	0xbead6ba4	-0.33871186
14	0xbdd3db85	-0.103446044
15	0xbe5d6152	-0.21619156
16	0xbe524ef8	-0.20537937
17	0xbe253783	-0.16134457
18	0xbe23084e	-0.15921137
19	0x3c4b8367	0.0124214655
20	0xbe4b1a66	-0.19834289
21	0xbe36d654	-0.17855197
22	0xbe233e63	-0.15941767
23	0xbe50deaf	-0.20397447
24	0xbe16e073	-0.14734058
25	0xbe126216	-0.1429523
26	0xbe65e2e7	-0.22449838
27	0xbe06d4ea	-0.13167158
28	0xbe5e8ef8	-0.21734226
29	0xbe243051	-0.16034056
30	0xbe51d8dd	-0.20492883
31	0xbe417549	-0.18892397
32	0xbe5532d2	-0.20820168
33	0xbe255420	-0.16145372
34	0x3d7b2232	0.061311908
35	0xbe42f0c8	-0.19037163
36	0xbdf5b1a0	-0.1199677
37	0xbe809b00	-0.25118256
38	0xbe9e821b	-0.30958638
39	0xbe634bf9	-0.2219695
40	0xbe35f5c1	-0.17769529
41	0xbe37554e	-0.17903635
42	0xbe256043	-0.16150002
43	0xbe51a031	-0.20471264
44	0x3e062117	0.1309856
45	0xbe5fcd7f	-0.21855734
46	0xbe68cd77	-0.22734629
47	0xbe4209fc	-0.18949121
48	0xbe4d1806	-0.20028695
49	0xbe6b61d2	-0.22986534
50	0xbe0ddf6f	-0.13854764
51	0xbe4428c1	-0.19156171
52	0xbe4d0262	-0.2002044
53	0xbe60219d	-0.21887822
54	0xbe4feeb6	-0.20305905
55	0xbe46d365	-0.19416578
56	0xbe288da5	-0.16460283
57	0xbda3e420	-0.08002496
58	0xbd95c05a	-0.07312079
59	0xbe2ea972	-0.17056826
60	0xbe50e672	-0.20400408
61	0xbe484d1c	-0.19560665
62	0xbe3b80e6	-0.1831089
63	0x3c9cd660	0.01914519
64	0xbe430cc8	-0.19047844
65	0xbdd05899	-0.10173149
66	0xbe1e49b3	-0.15457802
67	0xbe8ad5d3	-0.2711626
68	0xbe3e5e5a	-0.1859068
69	0xbe1ae945	-0.15128048
70	0xbe367198	-0.1781677
71	0xbe49bd2d	-0.19701071
72	0xbe846443	-0.25857744
73	0xbe12d81b	-0.1434025
74	0xbdda4417	-0.10657518
75	0xbe21eaed	-0.15812273
76	0xbeb88654	-0.36039984
77	0xbe1c5127	-0.15265332
78	0xbe3a6a2b	-0.18204562
79	0xbe03303f	-0.12811373
80	0xbe7a3eb6	-0.24437985
81	0xbe77d57a	-0.24202529
82	0xbe2ad0b7	-0.16681181
83	0xbe22c689	-0.15896048
84	0xbe37205f	-0.17883442
85	0xbdfbba8f	-0.122914426
86	0xbe673d6f	-0.22582029
87	0xbe85390c	-0.26020086
88	0xbe323a5c	-0.17405075
89	0xbe206bf2	-0.15666178
90	0xbe36e12e	-0.17859337
91	0xbe3580ff	-0.1772499
92	0xbe0ee213	-0.13953428
93	0x3e174ba3	0.14774947
94	0xbe432d81	-0.19060327
95	0xbe20d427	-0.1570593
96	0xbe2c151a	-0.16804925
97	0xbd439fc3	-0.047759783
98	0xbdba2ed1	-0.09090961
99	0x3e1c55c2	0.15267089
100	0xbe6c913e	-0.2310228
101	0xbe5a1408	-0.21296704
102	0xbe51a97c	-0.2047481
103	0xbea3baf2	-0.31978565
104	0xbe25b12b	-0.16180865
105	0xbe4d51f4	-0.20050794
106	0xbe1321a9	-0.14368309
107	0xbe41eb93	-0.1893752
108	0xbe078f3a	-0.1323823
109	0xbe51bba8	-0.20481741
110	0xbe791f6b	-0.24328391
111	0xbddd7d37	-0.108148985
112	0xbe5e6d23	-0.2172132
113	0xbe86ab33	-0.2630249
114	0xbe9015f8	-0.2814176
115	0xbdf17012	-0.11788954
116	0xbe1fe10d	-0.15613194
117	0xbe10a293	-0.14124517
118	0xbe49b93e	-0.1969957
119	0xbee23b1b	-0.4418572
120	0x3d7d1a17	0.06179246
121	0xbe0f83ee	-0.14015171
122	0xbe23d1c0	-0.15997982
123	0xbe75617b	-0.23962967
124	0xbe706439	-0.23475732
125	0xbe532fcc	-0.20623702
126	0xbdae8e58	-0.08523244
127	0xbe15fa04	-0.14646155
128	0xbe83d967	-0.25751802
129	0xbe19ccaf	-0.15019487
130	0xbe81f2f7	-0.2538068
131	0x3cebed2f	0.028799621
132	0xbe4ae69b	-0.19814532
133	0xbe185c1d	-0.14878888
134	0xbe1964d6	-0.14979872
135	0xbe25c5f5	-0.16188796
136	0xbe490394	-0.19630271
137	0xbe67f0cf	-0.22650455
138	0xbe90d22c	-0.28285348
139	0xbe530e4e	-0.20610926
140	0xbe407bb7	-0.18797193
141	0xbe0170d1	-0.12640692
142	0xbde2a824	-0.110672265
143	0xbe3f9aef	-0.18711446
144	0xbe4f92b6	-0.2027081
145	0x3d99f238	0.07516903
146	0xbe46e619	-0.19423713
147	0xbe4115aa	-0.1885592
148	0xbde92844	-0.11384633
149	0xbe429e72	-0.19005755
150	0xbea3009f	-0.3183641
151	0xbe50d1ff	-0.20392607
152	0xbe25e1fe	-0.1619949
153	0xbe4cea41	-0.20011236
154	0xbe2e4e79	-0.17022122
155	0xbe1b6169	-0.15173878
156	0xbe4147d1	-0.18875052
157	0xbe570280	-0.20997047
158	0xbe1c35ec	-0.15254945
159	0xbe1c2350	-0.15247846
160	0xbe40f6d2	-0.18844154
161	0xbdbccf61	-0.09219242
162	0xbe18a5be	-0.14906976
163	0xbe39879a	-0.18118134
164	0xbe78fc5b	-0.24315016
165	0xbe00cede	-0.12578914
166	0xbe4a2979	-0.19742383
167	0x3d9e64ba	0.07734056
168	0xbe6f300c	-0.23358172
169	0xbe188fa5	-0.14898546
170	0xbe6e3568	-0.2326256
171	0xbe5217b4	-0.20516855
172	0xbe6559b1	-0.22397496
173	0xbe14cecf	-0.14532016
174	0xbe6ddfa8	-0.2322985
175	0xbe57b3df	-0.21064709
176	0xbe53b183	-0.20673184
177	0xbe273e57	-0.16332375
178	0xbe520862	-0.2051101
179	0xbdc757ba	-0.097335294
180	0x3d922af2	0.071370974
181	0xbe605e32	-0.21910933
182	0xbe113dba	-0.14183703
183	0xbdd48fe9	-0.10379011
184	0xbe23b9ad	-0.15988798
185	0xbe439007	-0.19097911
186	0xbe821508	-0.2540667
187	0x3e373bb4	0.17893869
188	0xbe5fd8cb	-0.21860044
189	0xbe078928	-0.13235915
190	0xbe21001b	-0.15722696
191	0xbe5d9cac	-0.21641797
192	0xbe38fa18	-0.18064153
193	0xbe1033a7	-0.14082204
194	0xbe2c2757	-0.16811882
195	0x3e099aef	0.13438009
196	0xbdfc9080	-0.12332249
197	0xbe965a46	-0.29365748
198	0xbde87f56	-0.113524124
199	0xbe332f7c	-0.17498583
200	0xbe208599	-0.15675963
201	0xbe1710c6	-0.14752492
202	0xbe529bd7	-0.2056726
203	0xbf893473	-1.0719131
204	0xbe1c2af7	-0.15250765
205	0xbe2f963d	-0.17147155
206	0xbe32e582	-0.17470363
207	0xbe760a39	-0.24027337
208	0xbe60b70b	-0.21944825
209	0xbebd30d4	-0.36951315
210	0x3d470d55	0.0485967
211	0xbe70616c	-0.23474663
212	0xbe3497eb	-0.17636077
213	0xbe769a34	-0.24082261
214	0xbe298655	-0.1655515
215	0xbe05b3af	-0.13056825
216	0xbe3052c6	-0.17219076
217	0xbe170d7b	-0.14751236
218	0xbe083762	-0.13302377
219	0xbe0cf98e	-0.13767073
220	0xbe426c16	-0.18986544
221	0x3df2f5e4	0.11863306
222	0xbe10dad0	-0.1414597
223	0xbe89d6d8	-0.26921725
224	0xbe498f95	-0.19683678
225	0xbe55cf58	-0.20879877
226	0xbe2edef9	-0.17077245
227	0xbe6cb249	-0.23114885
228	0xbe4429b2	-0.1915653
229	0xbdf8cdd8	-0.121486366
230	0xbe59dc0e	-0.2127535
231	0xbe431aae	-0.19053146
232	0xbe608a37	-0.21927725
233	0xbe433790	-0.19064164
234	0xbe944728	-0.28960538
235	0xbe2982c3	-0.16553788
236	0xbe2e31aa	-0.17011133
237	0xbedfedac	-0.43736017
238	0xbe47a2a0	-0.1949563
239	0xbe750d86	-0.2393094
240	0xbe37e731	-0.17959286
241	0xbe37bf00	-0.17943954
242	0xbe1d7a11	-0.15378596
243	0xbe503a2d	-0.20334692
244	0xbe1de3f3	-0.15418987
245	0x3ddedefa	0.10882373
246	0xbd157a33	-0.03649349
247	0xbe197606	-0.14986429
248	0xbe2c0e79	-0.16802396
249	0xbe43f272	-0.19135454
250	0xbe41209b	-0.18860094
251	0xbe45f533	-0.19331817
252	0xbe6fa58c	-0.23402995
253	0xbe3c535f	-0.18391179
254	0xbe8f8174	-0.28028452
255	0xbe4a0fb9	-0.1973256

f.4.weight f4 [256, 256]
0	0xbd24c2ad	-0.04022472
1	0x3cf4520b	0.029824277
2	0xbd3c8446	-0.046024583
3	0xbd32479a	-0.043525316
4	0xbcf2f6a8	-0.02965863
5	0xbd857093	-0.065156125
6	0x3de9c3e8	0.11414319
7	0x3ddd7b42	0.10814525
8	0xbd58d421	-0.052936677
9	0x3db8463b	0.089977704
10	0x3b83a272	0.0040171677
11	0xbc2f1230	-0.010685489
12	0xbdb01ecd	-0.08599625
13	0xbc108dd0	-0.008822873
14	0xbd8cfa15	-0.06883637
15	0x3cf9c907	0.030491365
16	0x3e05ef54	0.13079578
17	0x3b4378dd	0.0029826679
18	0x3daf015d	0.08545182
19	0xbd5d90bc	-0.054093108
20	0xbd17b36f	-0.037036356
21	0x3b340013	0.0027465865
22	0x3db4550a	0.088052824
23	0xbd77b8fb	-0.060479145
24	0xbb918943	-0.0044414117
25	0x3cde19ef	0.027111975
26	0xbcdca9eb	-0.026936492
27	0x3cfb2c98	0.030660912
28	0xbdce420f	-0.100711934
29	0x3e15d349	0.1463138
30	0x3e758dc1	0.23979856
31	0x3dbf305b	0.09335395
32	0xbd511130	-0.051041782
33	0x3e3374b6	0.1752499
34	0xbd07eecf	-0.03318673
35	0x3ce59245	0.028023848
36	0xbdb64301	-0.08899499
37	0xbcdcf20c	-0.026970886
38	0x3c64a791	0.013955967
39	0xbdc52f59	-0.096281715
40	0x3d14de9f	0.03634512
41	0xbdab1fb9	-0.0835566
42	0x3dac2906	0.08406262
43	0x3d2ff3f4	0.04295726
44	0xbd25a25d	-0.040438045
45	0x3d67af1d	0.056563485
46	0x3e2ea42f	0.17054819
47	0x3d0d1fea	0.034454264
48	0x3dae0521	0.08497072
49	0x3dca828f	0.09888183
50	0x3e0b7185	0.13617523
51	0x3df03313	0.11728492
52	0x3dbb1a8c	0.09135923
53	0xbd7c9980	-0.061669827
54	0xbc9b9092	-0.018989835
55	0x3d33c556	0.043889366
56	0x3d8f5c72	0.070000544
57	0xbd875907	-0.066087775
58	0xbd0ae66b	-0.03391115
59	0xbd89ef47	-0.06735092
60	0x3d77f4e6	0.060536288
61	0xbd081567	-0.033223536
62	0x3d9ae48f	0.07563125
63	0xbca77f4d	-0.020446444
64	0x3dfb591d	0.122728564
65	0x3e8829cf	0.26594397
66	0x3dd4fc92	0.103997365
67	0xbd54e540	-0.051976442
68	0x3cf77a9a	0.030209828
69	0x3c97310a	0.018456
70	0x3c01819a	0.007904435
71	0x3dcd99cd	0.10039101
72	0x3d9c28ae	0.076249465
73	0x3e49f11b	0.1972088
74	0x3db7aee8	0.089689076
75	0xbe123e2a	-0.14281526
76	0x3d69537d	0.056964386
77	0x3e1111ec	0.14166993
78	0x3cacc6b8	0.02109085
79	0x3cebc450	0.028780133
80	0x3d35e89d	0.04441129
81	0x3e3dbbb9	0.18528642
82	0x3e1f084c	0.15530509
83	0x3d121bda	0.035671093
84	0x3db87b89	0.090079375
85	0xbdc02e73	-0.093838595
86	0x3d4805df	0.048833724
87	0xbd3de9e4	-0.046365634
88	0xbe016554	-0.1263631
89	0x3cf7f2d0	0.03026715
90	0x3bf9116f	0.007600955
91	0x3d684430	0.056705654
92	0x3e51fb36	0.20505986
93	0x3ddc7f43	0.10766461
94	0x3d9c1339	0.07620854
95	0xbdd53cf0	-0.104120135
96	0x3e8337f8	0.25628638
97	0x3ca042be	0.019563075
98	0xbdbff726	-0.09373312
99	0x3b20414d	0.0024452985
100	0x3cde6ff8	0.027153
101	0x3e06664e	0.13124964
102	0x3ddf26b0	0.10896051
103	0xbd749fd9	-0.059722755
104	0xbcb983ef	-0.022645919
105	0xbda094c2	-0.07840873
106	0xbe011993	-0.12607412
107	0x3df002fc	0.11719319
108	0xbde38d5d	-0.11110947
109	0x3deffed6	0.11718528
110	0x3d6bc610	0.057561934
111	0x3d6f152c	0.0583698
112	0x3dfafea1	0.12255598
113	0xbd59e154	-0.053193405
114	0xbcf4010f	-0.029785661
115	0x3e16e989	0.14737524
116	0x3dd489e6	0.103778645
117	0xbd936190	-0.07196343
118	0x3e165208	0.1467973
119	0x3e0a1834	0.13485795
120	0xbce56333	-0.028001403
121	0x3e5b6172	0.21423891
122	0xbd5598d9	-0.05214772
123	0xbc4bb0ac	-0.012432259
124	0x3cde7c43	0.027158862
125	0x3e010905	0.12601097
126	0xbcdfe5fd	-0.027331347
127	0xbe027b06	-0.12742242
128	0x3e24b807	0.16085826
129	0xbb187c19	-0.0023267327
130	0x3d28ba32	0.041193195
131	0xbcbdbc71	-0.023161145
132	0x3c2a1bc0	0.010382593
133	0x3d47cadf	0.048777457
134	0x3e67e629	0.22646393
135	0x3e1b9726	0.15194377
136	0x3db3a466	0.08771591
137	0xbcd79b94	-0.026319303
138	0x3e95199d	0.29121104
139	0xbd80222d	-0.062565185
140	0xbe063e24	-0.13109642
141	0x3cbe6273	0.023240304
142	0xbcf5eb54	-0.03001944
143	0x3d4d39c1	0.050103907
144	0xbd875148	-0.066073
145	0xbc800708	-0.015628353
146	0x3d56552e	0.052327327
147	0xbcadfab4	-0.021237709
148	0x3c630703	0.013856652
149	0x3e0b0d08	0.1357919
150	0xbd531423	-0.051532876
151	0xbe47a4d2	-0.19496468
152	0xbd8ccdc4	-0.06875184
153	0xbdae6637	-0.0851559
154	0xbe1aa013	-0.15100126
155	0x3cab5fea	0.020919759
156	0x3e0f4a12	0.139931
157	0x3d1d11d9	0.0383471
158	0xbdc59d8d	-0.09649191
159	0x3dc150cd	0.0943924
160	0x3b312fed	0.0027036623
161	0xbe826ba3	-0.25472745
162	0xbd4f451d	-0.05060302
163	0xbe5e11e6	-0.21686515
164	0xbdd58dbb	-0.104274236
165	0x3dc99ca7	0.09844332
166	0x3cce03fb	0.025148382
167	0xbcf105af	-0.029421655
168	0xbda3f385	-0.08005432
169	0xbdd8839d	-0.10571978
170	0x3d5828f0	0.052773416
171	0x3ce45abf	0.027875302
172	0xbd4f3937	-0.050591674
173	0xbe3afac8	-0.18259728
174	0xbe3c0231	-0.18360211
175	0xbe1a3aab	-0.15061443
176	0xbde3db99	-0.11125869
177	0x3d38b608	0.045095474
178	0xbce4f2f5	-0.027947882
179	0x3e5f82aa	0.21827188
180	0xbdb5444d	-0.08850918
181	0xbda6c077	-0.081421785
182	0x3cba9a81	0.022778751
183	0xbda8bd5c	-0.082392424
184	0xbdd78b44	-0.1052461
185	0x3e4af1e5	0.19818838
186	0x3d08b056	0.033371292
187	0x3db97da9	0.09057171
188	0x3dd781ac	0.1052278
189	0x3d0ec56c	0.034856245
190	0xbd467c8e	-0.04845863
191	0xbe34659e	-0.17616889
192	0xbd902497	-0.07038229
193	0x3e3ca033	0.18420486
194	0x3d9a21e3	0.07525995
195	0x3c411861	0.011785598
196	0xbd511df8	-0.05105397
197	0x3de54362	0.11194493
198	0xbe026db8	-0.12737167
199	0x3e076a2d	0.13224097
200	0xbd99b8d5	-0.07505957
201	0xbe0da9d3	-0.13834314
202	0x3b1e939b	0.0024196866
203	0xbdfd2352	-0.123602524
204	0x3db03270	0.0860337
205	0xbe3f5f9b	-0.18688814
206	0xbc8a01f7	-0.01684664
207	0x3c890765	0.016727159
208	0xbe023b62	-0.12717965
209	0xbd325d8e	-0.043546252
210	0xbcba4dfa	-0.02274226
211	0x3e4adaeb	0.19810073
212	0xbd8b5454	-0.06803194
213	0xbdc4dc5b	-0.09612342
214	0xbde5b25a	-0.112156585
215	0xb99a2269	-0.00029398807
216	0x3c08b18d	0.008343113
217	0x3c5685fa	0.013093466
218	0x3dba9403	0.09110262
219	0x3e0effcd	0.13964768
220	0xbd677000	-0.056503296
221	0x392d9bc4	0.00016556593
222	0x3e4d8b5c	0.20072693
223	0xbd156762	-0.036475547
224	0x3dfc9399	0.123328395
225	0xbe2a0ef6	-0.1660727
226	0x3dd1df5c	0.102476805
227	0x3ddd2dcc	0.10799751
228	0x3b87b73e	0.004141717
229	0x3dc8cd75	0.09804813
230	0x3dbde913	0.09272971
231	0x3c5f7295	0.013638158
232	0xbd463e88	-0.04839948
233	0xbd1e10f8	-0.0385904
234	0xbb23d17b	-0.0024996686
235	0x3d0b4d5c	0.034009323
236	0x3cc1137c	0.023568861
237	0x3e3292b6	0.17438778
238	0xbcfe2c8a	-0.031027097
239	0xbd4690c7	-0.048477914
240	0xbbbe8ea2	-0.005815343
241	0xbc3093b3	-0.010777402
242	0xbc92cd6a	-0.017920215
243	0x3e30ab07	0.17252742
244	0xbc9907a9	-0.01868041
245	0x3d6c67c4	0.057716146
246	0x3e264c7e	0.16240117
247	0xbe01ab43	-0.12662987
248	0x3d19fde5	0.03759565
249	0x3e6982d1	0.22803809
250	0x3d9d6d33	0.07686844
251	0x3dd2a3d7	0.10285156
252	0xbdc9db13	-0.09856238
253	0x3cb1b31a	0.021691848
254	0xbe480b80	-0.19535637
255	0x3da08907	0.07838636

f.4.bias f4 [256]
0	0xbde35a71	-0.11101235
1	0xbdccd243	-0.10001042
2	0xbd7f4259	-0.062319133
3	0xbdc37fd1	-0.095458634
4	0x3e33b491	0.1754935
5	0xbe0d68bc	-0.13809484
6	0xbf359a88	-0.7093892
7	0xbe27794e	-0.16354868
8	0x3e18fcd2	0.14940193
9	0x3c56ce2a	0.013110677
10	0xbdab9146	-0.08377318
11	0xbdb57ade	-0.08861326
12	0xbe0846b2	-0.13308218
13	0xbde53f45	-0.11193708
14	0xbd2bc733	-0.041938018
15	0xbd5e5a92	-0.054285593
16	0xbdac53e3	-0.084144376
17	0x3b1c4bc1	0.0023848864
18	0xbe88bb9b	-0.26705632
19	0x3e3c2ff3	0.18377666
20	0xbdfbcbec	-0.122947544
21	0xbe380d1e	-0.17973754
22	0x3e3b8783	0.18313412
23	0xbdc222f0	-0.0947932
24	0xbd2f3c87	-0.042782333
25	0xbdc3e66d	-0.095654346
26	0x3d05c8f6	0.032662354
27	0x3c82af6f	0.015952794
28	0xbd05f0a7	-0.032700207
29	0xbcfaf30c	-0.030633472
30	0xbd5ddec5	-0.054167528
31	0xbd5ca1fd	-0.05386542
32	0xbe0114bd	-0.12605567
33	0x3dc14d0b	0.09438523
34	0xbde9468b	-0.11390408
35	0xbd6050b8	-0.05476448
36	0x3b9436a2	0.0045231143
37	0xbde85c34	-0.11345711
38	0xbc6f2208	-0.014595516
39	0xbe1cf99b	-0.15329592
40	0xbdbbec61	-0.09175945
41	0xbe546827	-0.20742856
42	0x3cc8531d	0.024453694
43	0xbd4fc970	-0.050729215
44	0x3e054ba2	0.13017133
45	0xbded5b71	-0.11589707
46	0xbcf960b2	-0.030441616
47	0xbe05cd7c	-0.13066667
48	0xbe295b49	-0.16538729
49	0xbd574354	-0.052554443
50	0xbdf4caa1	-0.11952711
51	0xbd40ebd8	-0.047099918
52	0xbd7f71ac	-0.062364265
53	0xbd34324d	-0.043993283
54	0xbe26a31f	-0.16273163
55	0x3e3f2d47	0.18669616
56	0xbe09c9f0	-0.1345594
57	0xbef60b80	-0.4805565
58	0xbd95ae76	-0.073086664
59	0xbdceaba1	-0.10091329
60	0xbdcdf150	-0.10055792
61	0xbdb15e17	-0.08660524
62	0xbe14d141	-0.14532949
63	0xbdc652c8	-0.09683758
64	0x3d0a37f2	0.03374476
65	0xbe51c565	-0.20485456
66	0x3c7f57cd	0.015584898
67	0x3bc25bc3	0.005931349
68	0x3aeaae72	0.0017904772
69	0xbc9c34aa	-0.019068081
70	0xbe75e222	-0.24012044
71	0xbe255c00	-0.16148376
72	0xbe185001	-0.14874269
73	0xbe0800a8	-0.132815
74	0xbe735989	-0.23764624
75	0xbe07d25b	-0.13263838
76	0xbe044355	-0.1291631
77	0xbdbb9d86	-0.091609046
78	0xbe03db53	-0.12876634
79	0xbe1a87a6	-0.15090808
80	0x3c2e4db9	0.010638648
81	0x3d2832ac	0.04106395
82	0x3d95cc54	0.07314363
83	0xbdf165de	-0.11787008
84	0xbca14112	-0.019684348
85	0xbd9b6b48	-0.07588822
86	0xbe0f1ab0	-0.13975024
87	0xbc1e1c7a	-0.009650344
88	0x3e4361ad	0.19080229
89	0x3e08c7fb	0.13357536
90	0xbc866191	-0.016403945
91	0xbe497f7f	-0.19677542
92	0xbe28bd5f	-0.1647849
93	0xbdbd0611	-0.09229673
94	0xbdca77c7	-0.09886127
95	0xbdda5724	-0.10661152
96	0xbda4090c	-0.08009538
97	0xbd6de4e9	-0.058079634
98	0xbd0aebe4	-0.03391637
99	0x3e0ea44d	0.13929863
100	0xbd189f38	-0.037261218
101	0xbe13585b	-0.14389174
102	0xbc062a08	-0.008188732
103	0xbd25c159	-0.040467594
104	0xbe1d7e46	-0.153802
105	0x3e3f2a55	0.18668492
106	0xbcfb0313	-0.030641114
107	0xbda22072	-0.07916345
108	0xbdc3addc	-0.095546454
109	0xbdb6a7a1	-0.089186914
110	0xbe6a4dc9	-0.22881235
111	0xbdf818c4	-0.12114099
112	0xbd91522b	-0.070957504
113	0x3d815bd0	0.0631634
114	0xbd3141b4	-0.04327555
115	0xbd8e3228	-0.0694316
116	0x3e38304f	0.17987178
117	0x3e008f1f	0.12554596
118	0x3d728c29	0.0592157
119	0xbe117684	-0.14205366
120	0xbceac4ca	-0.02865829
121	0xbe147304	-0.14497
122	0xbdd72231	-0.10504568
123	0xbdc7f066	-0.09762649
124	0xbe143951	-0.1447499
125	0xbe08c8ff	-0.13357924
126	0xbe5b4981	-0.21414758
127	0x3d4bb3a3	0.04973186
128	0x3d6c581d	0.05770122
129	0xbd0b9dcb	-0.03408603
130	0xbe05bcf0	-0.13060355
131	0xbdd78b1b	-0.10524579
132	0xbdf2a3d3	-0.11847653
133	0xbe1fb9e0	-0.1559825
134	0xbdc8e92e	-0.098101005
135	0x3bb4b0f0	0.0055142567
136	0xbe394a88	-0.18094838
137	0x3dfe5b8f	0.12419807
138	0xbf105cc2	-0.5639154
139	0xbe0ab0d3	-0.13544016
140	0xbe0c85e2	-0.13722947
141	0xbe24aad7	-0.16080795
142	0x3e176c16	0.14787325
143	0xbe8e7f23	-0.27831373
144	0xbe46ecd9	-0.19426288
145	0xbdd2c3e3	-0.10291269
146	0xbd6d937f	-0.05800199
147	0xbdfbd5e0	-0.12296653
148	0xbdcb27f2	-0.09919728
149	0xbd7af500	-0.061268806
150	0xbdca30a8	-0.09872562
151	0xbe0911bf	-0.13385676
152	0xbd83a377	-0.06427663
153	0xbdd2de23	-0.102962755
154	0xbdfbc73e	-0.12293862
155	0xbe0224b2	-0.1270931
156	0xbddc01ff	-0.10742568
157	0x3de5e979	0.11226172
158	0xbe2504fe	-0.16115186
159	0xbd0c57d7	-0.034263458
160	0xbe17066d	-0.14748545
161	0xbd4323bf	-0.047641512
162	0x3c9bff8f	0.019042758
163	0x3dd2921a	0.10281773
164	0xbdd2c842	-0.102921024
165	0x3dc9dcdf	0.09856581
166	0xbd375bca	-0.04476527
167	0xbde55343	-0.111975215
168	0xbd85764c	-0.06516704
169	0xbd71045f	-0.05884206
170	0xbe181bc9	-0.14854349
171	0xbd88da26	-0.066822335
172	0x3d8aaaba	0.06770845
173	0x3dfdc16d	0.12390409
174	0xbdb5e0da	-0.08880778
175	0xbe68757b	-0.22701065
176	0xbe0aa38f	-0.13538955
177	0xbd0fb700	-0.03508663
178	0xbdcabc8e	-0.09899245
179	0xbdc058e9	-0.09391958
180	0xbdade1e6	-0.08490352
181	0xbe380d6d	-0.17973872
182	0xbe3c822a	-0.18409029
183	0x3cf79451	0.03022209
184	0xbcddcc6b	-0.027075013
185	0x3c9a1ccc	0.01881256
186	0xbc0c0bcb	-0.008547734
187	0xbdd1c0bf	-0.102418415
188	0xbdc7ed21	-0.097620256
189	0x3dfcc5b7	0.123423986
190	0xbe07563a	-0.13216487
191	0xbfac8b0f	-1.3479937
192	0xbdb6167d	-0.08891008
193	0xbe186777	-0.14883219
194	0xbd517101	-0.05113316
195	0xbd82095b	-0.06349441
196	0xbe1098ad	-0.14120741
197	0xbd909d2a	-0.07061227
198	0xbde6d6a1	-0.11271406
199	0xbdf7ddc6	-0.12102847
200	0xbdda9dc2	-0.10674621
201	0xbd5b46d6	-0.05353435
202	0xbe251a70	-0.16123366
203	0xbdf33fae	-0.1187738
204	0xbdd3f58e	-0.1034957
205	0xbd2c67df	-0.042091247
206	0xbddaca90	-0.10683167
207	0xbdbda989	-0.09260852
208	0xbd3a4b88	-0.04548219
209	0xbde1ed16	-0.11031549
210	0xbeae8397	-0.3408477
211	0xbdff3990	-0.12462151
212	0x3e3aa9b4	0.18228799
213	0xbcbe13c8	-0.023202792
214	0xbd013ca9	-0.03155199
215	0xbe350940	-0.1767931
216	0xb97eeea8	-0.00024312234
217	0xbd931dd5	-0.071834244
218	0xbdbcbaed	-0.09215341
219	0xbdaa6f79	-0.08322043
220	0xbdc632db	-0.09677669
221	0x3d9b7adc	0.07591793
222	0xbda2fd03	-0.079584144
223	0xbd948322	-0.07251574
224	0xbdee8c25	-0.11647824
225	0xbe2607c4	-0.162139
226	0xbe13780a	-0.1440126
227	0xbd5394ab	-0.051655453
228	0xbd898cbb	-0.06716295
229	0x3cb37dc2	0.021910552
230	0x3da1a375	0.07892505
231	0xbe06bb58	-0.13157403
232	0xbdad7ff2	-0.08471669
233	0xbe451342	-0.19245628
234	0xbd5b1cd7	-0.0534943
235	0xbda3d758	-0.08000058
236	0xbe2cb83a	-0.16867152
237	0xbdd8e840	-0.10591173
238	0xbdf2fb88	-0.11864382
239	0xbe3363ce	-0.17518541
240	0xbdab9463	-0.08377912
241	0xbd802caf	-0.06258523
242	0x3e0e3ca6	0.13890323
243	0xbddb1b00	-0.10698509
244	0x3d42f3c5	0.047595758
245	0xbd8f134a	-0.06986101
246	0xbe17a0ab	-0.14807384
247	0xbdc64418	-0.096809566
248	0xbe1bbc8b	-0.15208642
249	0x3b8b6237	0.0042536515
250	0xbd32470f	-0.043524798
251	0xbdd9da0a	-0.10637291
252	0x3d7ba406	0.06143572
253	0xbe1f05fe	-0.1552963
254	0xbe17ea67	-0.14835511
255	0xbddcf7a7	-0.107894234

f.6.weight f4 [256, 256]
0	0xbdb6d345	-0.08927015
1	0x3da4cbb5	0.080466665
2	0x3d18cfca	0.037307538
3	0x3c57e39a	0.013176823
4	0xbe9c1c57	-0.30490372
5	0x3d1895c4	0.037252203
6	0x3e4e945c	0.20173782
7	0xbbedfc9e	-0.0072627803
8	0xbe3b901e	-0.18316695
9	0xbdf4897a	-0.11940284
10	0xbddfb272	-0.109227076
11	0xbc7f47fe	-0.015581129
12	0xbe12827b	-0.14307587
13	0xbd94ad27	-0.07259589
14	0x3d09ea47	0.03367069
15	0x3c34d40c	0.011036884
16	0xbea0f3bc	-0.31435955
17	0xbe9d6e1a	-0.30748063
18	0x3e266f66	0.16253433
19	0xbd88880b	-0.06666573
20	0x3d58f452	0.052967377
21	0x3db48037	0.088135175
22	0xbd30f8a8	-0.043205887
23	0x3d806584	0.062693626
24	0xbdadd94b	-0.08488711
25	0x3da8b2fa	0.08237262
26	0xbdc45482	-0.09586431
27	0xbdacbcfe	-0.08434485
28	0xbe17abdf	-0.14811657
29	0xbd9b6304	-0.07587245
30	0xbcd0aa16	-0.025471728
31	0xbb2606bd	-0.0025333606
32	0x3dc36486	0.09540658
33	0xbe4b3e31	-0.19847943
34	0xbe396aef	-0.18107198
35	0xbe4c3231	-0.19941022
36	0xbddd4e41	-0.108059414
37	0xbde3825d	-0.11108849
38	0xbd60016d	-0.05468886
39	0xbd87bb9e	-0.06627582
40	0x3c0eec5b	0.008723344
41	0x3cf95b6b	0.0304391
42	0xbd8c21b8	-0.06842369
43	0xbe751f6d	-0.23937769
44	0x3d2924a5	0.041294713
45	0xbdb2a56e	-0.087229595
46	0xbdbf64ff	-0.09345435
47	0x3df6c3df	0.12049078
48	0x3de78706	0.113050506
49	0x3c272f5f	0.010204165
50	0x3c917467	0.0177557
51	0x3e476ee9	0.19475903
52	0xbe2750c1	-0.16339399
53	0x3d90dc85	0.07073311
54	0x3d127415	0.035755236
55	0x3d72d568	0.05928555
56	0x3d18936f	0.03724998
57	0xbd42ca3c	-0.047556147
58	0xbdca53de	-0.09879278
59	0x3e816468	0.25271916
60	0xbe422993	-0.18961172
61	0xbe3a1d98	-0.18175352
62	0x3d75189e	0.05983793
63	0xbd32eb9a	-0.04368172
64	0xbe92334c	-0.2855476
65	0x3e785b96	0.24253687
66	0xbea5ac90	-0.32358217
67	0xbe939618	-0.2882545
68	0x3c499c43	0.012305322
69	0xbe67cd41	-0.22636892
70	0x3d8d91f6	0.069126055
71	0x3e34535e	0.17609927
72	0xbe17ccdf	-0.14824246
73	0xbdd113eb	-0.10208877
74	0x3da33067	0.079682164
75	0xbce4d82c	-0.02793511
76	0x3e453f92	0.19262531
77	0xbe22ce48	-0.15899003
78	0x3c9b7d46	0.018980633
79	0xbdba66f9	-0.09101672
80	0xbe600dab	-0.21880214
81	0x3c79be68	0.01524315
82	0xbe52a99a	-0.2057251
83	0x3d849ab4	0.0647482
84	0xbda8dbcf	-0.0824505
85	0x3e0950b9	0.134097
86	0x3ca8432f	0.020539848
87	0xbe6fa50c	-0.23402804
88	0xbea7f07f	-0.3280067
89	0xbd87db67	-0.066336446
90	0xbe6ef7eb	-0.2333676
91	0x3d5a158a	0.053243198
92	0xbdd60d56	-0.104517624
93	0x3d9d61b0	0.07684648
94	0xbe13a5b2	-0.14418676
95	0x3e009114	0.12555343
96	0x3e0ef8b3	0.13962059
97	0xbd73b1c3	-0.0594957
98	0x3e2a6fdc	0.16644233
99	0xbe8e1f5a	-0.27758294
100	0x3db27aa1	0.08714796
101	0x3c2a2d09	0.010386714
102	0xbd80a29b	-0.062810145
103	0xbde6c200	-0.11267471
104	0x3ec54409	0.3852847
105	0x3c35f382	0.01110542
106	0xbe0cdfa0	-0.13757181
107	0xbe4eb2bc	-0.20185369
108	0x3e1caa46	0.15299329
109	0x3c99d32e	0.018777456
110	0x3ca5b32e	0.020227041
111	0x3cf16ffd	0.029472345
112	0x3d451e52	0.04812462
113	0x3d2b35ad	0.041799236
114	0x3e0e1c5b	0.13878004
115	0xbe799bce	-0.24375841
116	0x3d874cc0	0.06606436
117	0xbe5a9f54	-0.21349841
118	0xbd312c14	-0.043254927
119	0x3c3cc10e	0.011520637
120	0xbc67aec5	-0.014140789
121	0x3a2c0471	0.0006561941
122	0xbe776d7a	-0.24162856
123	0x3e1ab211	0.1510699
124	0xbdc1711e	-0.094454035
125	0x3d1e29fe	0.038614266
126	0x3dd9e270	0.10638893
127	0xbd86e59d	-0.06586764
128	0xbe04537b	-0.1292247
129	0xbd6a5cd9	-0.057217453
130	0x3cc938fd	0.024563307
131	0xbd5e194a	-0.054223336
132	0xbdf904ed	-0.12159143
133	0x3d8da845	0.069168605
134	0xbdcc1b2f	-0.09966122
135	0xbdf5443e	-0.11975907
136	0x3ea3ca82	0.3199044
137	0x3cf92e17	0.030417485
138	0x3c48e097	0.012260578
139	0xbded0187	-0.11572557
140	0xbe36942e	-0.17829964
141	0xbc2a7085	-0.010402803
142	0xbd7bb0ed	-0.061448026
143	0x3ec66617	0.38749763
144	0x3bd4c1a4	0.0064928103
145	0xbd8d6ad6	-0.06905143
146	0xbd911e6d	-0.070858814
147	0x3d73d786	0.05953171
148	0xbd104e0d	-0.035230685
149	0xbd26ca58	-0.040720314
150	0x3d427a6e	0.04748004
151	0xbd081f92	-0.033233233
152	0xbd82d6a5	-0.063885964
153	0x3e3b3963	0.1828361
154	0xbd8e724a	-0.06955393
155	0x3db22744	0.086988956
156	0x3e027185	0.12738617
157	0xbe5cef86	-0.21575746
158	0x3e3cbb20	0.18430758
159	0xbe902265	-0.2815124
160	0x3e00cc7c	0.12578005
161	0x3e252bf8	0.16130054
162	0xbde314ad	-0.11087928
163	0xbd4caef1	-0.049971525
164	0xbdf0389d	-0.11729548
165	0xbd4ceb9d	-0.050029386
166	0x3d9f3079	0.07772917
167	0x3c816a45	0.015797744
168	0xbddff791	-0.109358914
169	0xbe34a38e	-0.17640516
170	0x3e4cc099	0.19995345
171	0xbddc1bca	-0.10747488
172	0xbce47889	-0.027889507
173	0xbe7c1cf6	-0.24620423
174	0x3d7251f7	0.0591602
175	0x3e2d573d	0.1692781
176	0x3e0662a4	0.13123566
177	0xbe89de2b	-0.26927313
178	0xbd59d688	-0.05318311
179	0xbd0b7b5d	-0.034053195
180	0x3dbe748c	0.09299573
181	0x3de410e7	0.11136036
182	0xbde3ab4b	-0.11116656
183	0xbe3ef034	-0.18646318
184	0x3a8602b9	0.00102242
185	0x3e00d577	0.1258143
186	0xbdf3baf4	-0.11900893
187	0xbd3c169e	-0.045920007
188	0x3e268cc2	0.16264632
189	0xbe673cc1	-0.2258177
190	0x3d7c8250	0.061647713
191	0xbe4fcab8	-0.20292175
192	0x3d8a2375	0.06745044
193	0x3df08876	0.11744778
194	0xbe4b33a3	-0.19843917
195	0xbe5660a4	-0.20935303
196	0xbde3fde4	-0.1113241
197	0x3d5fcf92	0.054641314
198	0xbe2ab14b	-0.16669194
199	0x3d82ed71	0.063929446
200	0xbd8a81d8	-0.06763047
201	0xbe82eb30	-0.2557006
202	0x3dd8a61c	0.10578558
203	0x3e8deaf7	0.27718326
204	0xbbee9b7e	-0.0072817197
205	0xbde1eb27	-0.1103118
206	0xbd42ad61	-0.04752863
207	0xbe1a3058	-0.15057504
208	0xbe09fc74	-0.1347521
209	0x3d1f8219	0.03894243
210	0xbae4ea43	-0.0017464835
211	0x3e16683f	0.14688204
212	0x3c0db518	0.008649133
213	0xbd8172e9	-0.063207455
214	0xbe184dfb	-0.14873497
215	0x3dfd92fc	0.12381551
216	0xbdb133c7	-0.08652454
217	0xbcc0e5d2	-0.023547087
218	0xbe850479	-0.25979975
219	0xbded4bff	-0.11586761
220	0x3e0b7c6f	0.13621686
221	0x3be1a539	0.006886151
222	0xbcc5631d	-0.024095112
223	0xbd64afe1	-0.055831794
224	0x3cadc85c	0.021213703
225	0xbd98f85b	-0.07469245
226	0x3cdb4534	0.026766397
227	0xbd0e26af	-0.03470486
228	0xbd600d87	-0.0547004
229	0xbd647b9d	-0.05578195
230	0x3b0a3706	0.0021089925
231	0x3e0594db	0.13045065
232	0xbdd2f3a3	-0.10300376
233	0x3d9cbb8b	0.076529585
234	0x3b5bd82c	0.0033545597
235	0xbd8c1dfb	-0.06841656
236	0x38ae6f57	8.317705e-05
237	0xbcef946e	-0.029245581
238	0x3dd3f828	0.103500664
239	0xbdc682ad	-0.09692893
240	0xbdac76ab	-0.084210716
241	0xbd845167	-0.06460839
242	0xbddc9c0d	-0.10771952
243	0xbd485c40	-0.0489161
244	0xbbc23d8d	-0.0059277476
245	0x3d7509ff	0.059823986
246	0xbd87ef60	-0.06637454
247	0xbdc502db	-0.09619685
248	0x3dede6d9	0.11616296
249	0x3d2b5fe7	0.041839506
250	0x3c2f88e4	0.01071379
251	0x3e9b2099	0.30298308
252	0x3dd62b5c	0.10457489
253	0x3cb3874a	0.021915097
254	0x3da2196c	0.07915005
255	0xbe39ed6a	-0.18156973
