Three_Body_Problem/FCN/mera_model_new_new.pth (torch, 238469 bytes, 12 tensors)

pf.weight f4 [256, 27]
00000000: ad41 413e 00ce 023e c5c5 e7bd 05b0 49bd
00000010: 6ca0 b4be fdc6 b6bc fd9b a8bd 46e1 c73d
00000020: f5dc 32bd 1e6b adbe 67c9 6dbd 7c1f 3b3c
00000030: 316b 103e b731 efbd f611 6dbd 993e fabb
00000040: a93d c6be 969b a73d 8a71 80be ba79 4fbd
00000050: 0741 c83d 96ca 393e 3926 f7bd 46e0 b5bd
00000060: ecad 673e 2e06 cab8 2ee4 033e 921d 773e
00000070: 946c ebbd 0642 3f3e 39eb 813d 4def cabe
00000080: 8c59 983d a7a8 38be d844 02be f770 edbd
00000090: 8c3a 96b9 3e36 5abd ddb2 4cbe c3a0 61be
000000a0: 8b78 df3e c081 5fbe 71a2 f03e e59d b83d
000000b0: 7966 003e 383e b3bd 8b61 ca3d 651f 803d
000000c0: 595c 2ebd 0d9f 9f3d 146c f43b 73c3 cf3d
000000d0: 8807 50be 9424 ae3d fe4e 07be d134 333e
000000e0: b389 943d 86a4 813b 3134 7dbd 93de 47be
000000f0: cc88 8fbc 0533 03bd 9244 513e 30c1 dcbd
00000100: 2524 ab3d 70f1 38be 1d10 af3d b905 f53d
00000110: 11d2 d3bd 31b0 893d 442a 8abe ad82 67bd
00000120: a2c4 edbd 7ec2 4fbe 438d ab3d ff8c 03bd
00000130: b181 20be 3826 62bd 2a30 17be 09c6 bc3c
00000140: 904d e8bd c915 57be dc50 923d 9b7b 973d
00000150: 12ab 1ebe b66b 7a3e c0f3 5b3d 82f8 ccbd
00000160: bbc9 48be 9f70 24be 7d5f 2ebe d085 fb3d
00000170: 4ab5 033e 305d 8ebe 1c1b 5abe e4e1 4ebe
00000180: 1524 7c3e aa05 5b3e fbbc 8d3e 36dc af3c
00000190: e1cf 483e 0e63 43bd f552 2f3d 922f 93bd
000001a0: 6dcd 273e 1490 0f3e 6c63 29be 1035 4bbe
000001b0: 81bf 13be ae5b 1c3e c2b3 89bd 8e24 b5bd
000001c0: a6fd 86be 4def e53d d637 923e b53b 8d3e
000001d0: 59e3 08be e96b 25be b6f1 cfbe 6b0d b1be
000001e0: 6347 82be b3f2 cf3c 10a7 98be 7c99 5d3d
000001f0: 17d2 483e f7b5 683e a3db 063d e121 24be
00000200: 4174 b5bd fc40 99bc 81b8 50bd 67fb 5d3e
00000210: acd9 063e db27 503c 6199 4b3b 0beb 143c
00000220: 5532 433d 79e1 acbc 5d99 49be c919 913c
00000230: 22c3 7bbe 29e4 b53e 47e7 fd3d 9253 87be
00000240: 63a2 87be df06 8c3d 182d 8dbe 52bf a33e
00000250: 7705 02be b419 5b3e 0536 efbe 4888 323e
00000260: 7f25 623e b1e5 1fbe cf68 a5bd d477 143e
00000270: bffb 69be ee05 03be 8354 63bd 2dad 823d
00000280: 3ec0 e43d cb17 5cbe 690f fabd 70c9 dc3b
00000290: 4c6d cc3d 3c9c 303e 10d1 953e a44e 05bd
000002a0: 23b8 5ebe 124f 19bd 32de 753d ce1f 013f
000002b0: 6d3c 923d 0111 c93e 812b e53e 3edb 373e
000002c0: 8dec 6f3e 76c4 91be dead dbbe e9ec 9cbe
000002d0: 8240 e23e fe0f 4fbe 3ac8 a93e 4812 bebd
000002e0: d9bb 853d 2eee 80be 0314 a8be 792c 3f3e
000002f0: 9d73 583d f6a0 2a3d f252 d7bd 84aa 1ebe
00000300: aa81 91be 8f44 923c b29c 033c 41db 053e
00000310: c268 353e eb75 673d b7aa 6fbe c361 813e
00000320: 1f57 61be 23ba 1f3e 2bcf ce3e 1abb d3bd
00000330: f0f7 af3d 2148 d3be 1cd6 31be 9958 f83d
00000340: 2d69 1abe 115b 6cbe f57d 013d 257d 483e
00000350: 0110 473e e37b b1bd 1b93 5dbb 1c7f e83d
00000360: cf80 dd3c 504e 12be ba85 5bbe dc8e e33d
00000370: 9299 07bd c4a1 17bd 5927 82be 1da3 29be
00000380: 43e4 eabc 80fa 91be f66b 9d3e 7b4c fa3d
00000390: 33ba ee3d bc58 2f3d c1b3 11be ed32 113e
000003a0: df23 97be 660a 293e 1d5d eebc 4dc8 bb3d
000003b0: ca58 4dbd dc89 cfbd 0ed2 09bd b482 c43d
000003c0: 2e88 22be 7587 30be 8309 863e 050f 163e
000003d0: f34f 873e 6528 17bd f7bd 523c 4a7d 48be
000003e0: 6ee8 26be 0265 2f3d ced7 e9bd 1a4f 50be
000003f0: bac9 9abe 0980 72bd 0563 5dbe 9d87 a0be
0.1887271 0.12773895 -0.113170184 -0.04924013 -0.35278642 -0.022311682 -0.082328774 0.097597644
-0.043667752 -0.33870786 -0.0580534 0.011421081 0.1410339 -0.11679404 -0.057878457 -0.0076368568
-0.38718918 0.081839725 -0.25086623 -0.050653197 0.09778028 0.18143687 -0.12067837 -0.088806674
0.2262494 -9.633262e-05 0.12880012 0.24132374 -0.11495319 0.1867753 0.06343693 -0.39635697
0.07438955 -0.18033086 -0.12721574 -0.11593812 -0.0002865385 -0.053274386 -0.19990106 -0.22033982
0.43646654 -0.2182684 0.46998933 0.09014491 0.1253909 -0.08752102 0.09881886 0.06255988
-0.04256854 0.077940084 0.007459173 0.10144701 -0.20315373 0.085030705 -0.13213727 0.17500617
0.072528265 0.0039563803 -0.06181735 -0.19518499 -0.017521285 -0.032031078 0.20436314 -0.10779035
0.083565034 -0.18060851 0.08547995 0.11963982 -0.10342801 0.06723059 -0.2698537 -0.056521107
-0.1160977 -0.20289037 0.08376553 -0.032116886 -0.15674473 -0.05521223 -0.14764467 0.02304365
-0.11342919 -0.21004404 0.07144329 0.07396623 -0.15494946 0.24455151 0.053699255 -0.100083366
-0.19608204 -0.16058587 -0.17028613 0.12281382 0.12862125 -0.2780547 -0.21299404 -0.20203358
0.24623139 0.2138888 0.27683243 0.02146731 0.1961055 -0.047701888 0.042803723 -0.07186808
0.16386957 0.14019805 -0.16541833 -0.1984446 -0.14428522 0.15269348 -0.06723739 -0.08844863
-0.26365393 0.112272836 0.28558224 0.27584615 -0.13367976 -0.16154446 -0.40614098 -0.3458055
-0.2544509 0.025384283 -0.2981496 0.054101452 0.19611393 0.22725664 0.032924306 -0.16028549
-0.08860064 -0.018707745 -0.050957207 0.21677934 0.13168973 0.012704815 0.0031066763 0.009089242
0.047655422 -0.021103607 -0.1968741 0.01771249 -0.24586156 0.35525635 0.12397628 -0.26430947
-0.2649108 0.06837248 -0.27573466 0.31981903 -0.12697397 0.21396524 -0.467209 0.174348
0.22084616 -0.15614964 -0.08076631 0.14498836 -0.2284994 -0.12795231 -0.05550052 0.06380687
0.1116948 -0.21493451 -0.122099705 0.0067378804 0.09981784 0.17247099 0.29261065 -0.0325457
-0.2174993 -0.037428923 0.060026355 0.50439155 0.071404316 0.39270785 0.44759753 0.17954728
0.2343008 -0.284702 -0.42906088 -0.30649498 0.4418984 -0.20220944 0.33160573 -0.092808306
0.0652997 -0.25181717 -0.32827768 0.18669309 0.052844632 0.04165741 -0.105138674 -0.15494734
-0.28419238 0.017854957 0.008032965 0.1307192 0.17715743 0.05650894 -0.23404966 0.252699
-0.2200589 0.1559835 0.40392432 -0.10338421 0.08592212 -0.41265967 -0.17366832 0.12126274
-0.15079184 -0.23081614 0.031614263 0.19578989 0.19439699 -0.08666208 -0.0033809606 0.11352369
0.02703896 -0.14287686 -0.21437731 0.11111233 -0.03310544 -0.037019506 -0.25420645 -0.16566129
-0.028673297 -0.2851143 0.3074643 0.12221619 0.116566084 0.042809233 -0.14228727 0.14179583
-0.29519555 0.16507873 -0.029097134 0.09169064 -0.050133504 -0.101337165 -0.03364759 0.09595242
-0.15872261 -0.17239173 0.26179132 0.14654167 0.26428184 -0.036903758 0.012862674 -0.19579044
-0.16299602 0.042820938 -0.114181146 -0.20342675 -0.3023203 -0.059204135 -0.21619804 -0.31353465

pf.bias f4 [256]
00000000: b855 0dbe 070b 763d a021 6e3d 3b28 033e
00000010: 7644 5bbe d425 34bd 3fc7 de3d aeed babe
00000020: 542f edbd 4800 e6be 9aeb 8abe 60a2 f3bd
00000030: 0de6 17be d6b0 273d 155e 823c a6f7 46be
00000040: 35c2 10be db56 1bbe ff31 043b 41b4 c23c
00000050: 0557 8f3d b43e 8ebe 4ba5 08be fbfa 523c
00000060: 7dc3 00be be7a 00bc 19f2 80be 4ff8 b4be
00000070: 52b6 76bd f479 20be f36e e83d cafa 2ebd
00000080: 2884 ec3c cb2e a63d 9d2c 41be 1ba1 3bbd
00000090: 58e4 573d e209 b13c 6f71 67bb 6b5f fdbd
000000a0: 3e6b 533e 8b72 2b3e 6e8c afbe ea58 b9bd
000000b0: 6fa2 02be b4a7 05be 772a fb3d 3476 67bd
000000c0: dcbb 5bbe a127 96be a700 60be 58d7 cdbd
000000d0: 3694 f13d 0a29 db3c bf14 51bd cc61 7e3d
000000e0: 9b19 8fbd 05d9 01be 8975 90bc 39a8 c0bd
000000f0: 90c4 78be f0d1 9abe a25d d7bc b0af 36bd
00000100: 282f dbbd c6b7 9c3d 7fc6 393e b48e ed3c
00000110: ecc2 0ebd 55c7 ffbd 98b9 8dbc 7c9d 14be
00000120: 3696 ef3d ee0e 7cbe cfbb 2a3c 1c1a edbd
00000130: 436b 9ebe 0ddd 303e 2f9a a4bd 6a98 c83d
00000140: fed2 09be 6dc6 1abd 7110 83be 11b2 a0be
00000150: 9d18 2ebe 2421 593e e723 83bd a88f 02be
00000160: ca1c 11bd 1b18 c53d 6cc6 14be c318 72bd
00000170: 60a2 9c3d da7a c93d 7eea 923d 8f02 b73c
00000180: 0925 7d3c 74fc cd3a de30 82be f63d ff3d
00000190: 4739 4d3d c76c 6abe 27a9 1fbd c03c 83be
000001a0: 0a1f 4e3d a774 47be e864 d93b 93af 30be
000001b0: ca95 0ebd 0602 80bd 1ca9 e5bd 8b81 96be
000001c0: 84a0 0cbd 826f 9ebe 8b27 4fbe d0c9 aabd
000001d0: 4436 2fbe f5a1 bf3d 09b1 f13c d863 95bc
000001e0: b2fe 023e c5a4 eabc 5cae 54be ea73 6fbd
000001f0: a854 92bc a000 8cbc 73ae df3d 8e0b a83d
00000200: de03 f43d a592 d2bd f43d f4bc 0bc9 80be
00000210: de6f 7cbe ebaf 73bd fe4b a1bd b002 14be
00000220: 9ccc 8cbe f39d 073d c597 02be 39c2 2dbd
00000230: 0b1a 32be 8f32 4abe 9860 02be 870e 18bd
00000240: 6f89 dabd ac03 3f3c b16b acbe 4f0e 78be
00000250: aba1 e5bb 2537 573d bb8d 1bbc 933b f2bb
00000260: b203 4fbd 39d6 4fbe 7827 38bd b89c ca3b
00000270: 1a37 f4bd 907b 3cbe 39a9 dfbe 12f8 80be
00000280: b14c afbd 8eba 4bbe 7fc9 68bd 565b d6be
00000290: f2a8 9fbe eb11 a1bc 74f0 32be b122 07be
000002a0: 1324 163c 6341 70be 2643 a0bd 9932 28be
000002b0: 3184 c83c 4998 0abd 338e a9bd f7f1 02be
000002c0: 68e9 3bbe ff1c 33be 1043 8d3c 91b1 a43d
000002d0: 0c98 b1bd d015 43bd 414e 3ebe 4d66 7c3c
000002e0: 536a 49be 0de1 ac3d 4ac4 ebbd b988 0f3e
000002f0: 8686 fc3c 619d 793d 5570 72bd c37e a53d
00000300: 98c2 ecbb 69bd b53d 7f21 0cbe 0a7d 3cbe
00000310: 8d15 07bd 28bd ca3d 85de b2bc fa9e a83c
00000320: ce14 00bd 1d68 733c 1696 aebe b544 dcbd
00000330: aa36 c43d 5da0 3b3b 1e84 063e 5517 86be
00000340: af89 35bd 3979 b1bc 4124 5ebe b4c8 83bd
00000350: 08dc 28bd ddfc ecbd 932e 6ebd c134 afbe
00000360: 8a9b 03bd b3e0 b83d f3c5 fcbd 4e0a fabd
00000370: 5d05 64be 1acb 03bd 285e 2cbe d210 66be
00000380: 6376 d83d bf32 a03d 54a2 dd3d 84d3 15bf
00000390: 5711 c4bd c26a fa3c 578b 11be 8a47 19bd
000003a0: 78c2 41be 9c9b b3be 7a0f 79bc 5796 59be
000003b0: 38dc d8be e40b 71be bd3c 27bd 8f26 67be
000003c0: d2cc bebc bc4a aebe 7d99 e03c 8e5f efbd
000003d0: 96c7 b53d 5cde 28bc 4343 27be fec2 8e3c
000003e0: 905c c8be 6c09 33be 88b8 8a3d 04ab 5ebe
000003f0: 19aa 8a3c d99c 22be 6ce8 14bd 9253 4c3d
-0.1380223 0.06006911 0.058137536 0.12808315 -0.21412835 -0.04398139 0.10877847 -0.3650946
-0.11581293 -0.4492209 -0.27132875 -0.11896205 -0.14833851 0.04094013 0.015914002 -0.19430408
-0.14136584 -0.15169851 0.0020171402 0.023767592 0.069990195 -0.27782214 -0.13344304 0.012877221
-0.12574573 -0.007841764 -0.25184706 -0.35345694 -0.060232468 -0.15671521 0.11349287 -0.04271964
0.02887161 0.08114394 -0.18864675 -0.04580794 0.052708 0.021611158 -0.0035315414 -0.12371715
0.20646378 0.16742913 -0.34286827 -0.09050162 -0.12757276 -0.13052255 0.12263959 -0.05650921
-0.21458381 -0.2932711 -0.21875249 -0.10050839 0.11795847 0.026752967 -0.051045176 0.062104985
-0.06987306 -0.12680443 -0.01763417 -0.09407086 -0.24293733 -0.30238295 -0.026289765 -0.044601142
-0.10702354 0.076522395 0.18142127 0.02899871 -0.03485386 -0.124891914 -0.017300412 -0.145132
0.11698572 -0.2461507 0.010420754 -0.115772456 -0.3094121 0.17271824 -0.08037221 0.09794696
-0.13459393 -0.03778689 -0.2559848 -0.31385854 -0.17001577 0.21204048 -0.06403332 -0.12750113
-0.035427846 0.096237384 -0.14528817 -0.059105646 0.07648158 0.09837885 0.07173632 0.022340087
0.015450724 0.0015715496 -0.25427908 0.1246299 0.050103452 -0.22893058 -0.038979676 -0.25632286
0.05032257 -0.19478093 0.0066343434 -0.17254476 -0.03481082 -0.06250386 -0.11213896 -0.29395708
-0.034332767 -0.3094445 -0.20229928 -0.08339274 -0.17110544 0.09357063 0.029503362 -0.018236086
0.12792471 -0.028643021 -0.20769638 -0.058460154 -0.017862633 -0.017090142 0.109219454 0.08205329
0.119148 -0.102818765 -0.029814698 -0.25153384 -0.24652049 -0.05949394 -0.078758225 -0.1445415
-0.27499855 0.033109616 -0.12753208 -0.042421553 -0.17392747 -0.19745849 -0.1273216 -0.03712323
-0.10670745 0.01165859 -0.33675912 -0.24224208 -0.0070077977 0.052542824 -0.00949424 -0.0073923557
-0.050540633 -0.20296563 -0.044959515 0.006183233 -0.11924572 -0.1840651 -0.43683794 -0.25189263
-0.085595496 -0.19895384 -0.056832787 -0.4186656 -0.31183583 -0.019661864 -0.17474538 -0.13196827
0.009163874 -0.23462443 -0.078253075 -0.16425551 0.024477096 -0.033836637 -0.082790755 -0.12787615
-0.18350756 -0.1749153 0.017243892 0.080416806 -0.08671579 -0.047628224 -0.18584539 0.01540525
-0.19669466 0.084413625 -0.115120485 0.14017 0.030825865 0.060941104 -0.05918916 0.080808185
-0.007225346 0.08874018 -0.13684653 -0.18407074 -0.032979537 0.0989936 -0.021834621 0.020583618
-0.03126984 0.0148563655 -0.3409888 -0.10755292 0.09580739 0.002862952 0.13136336 -0.26189676
-0.04432076 -0.021664249 -0.21693517 -0.064347655 -0.041225463 -0.11571667 -0.058149885 -0.34219936
-0.032130755 0.09027233 -0.12342443 -0.12208997 -0.22267671 -0.032176115 -0.16832793 -0.22467354
0.105694555 0.07822179 0.10821977 -0.5852587 -0.0957362 0.030568484 -0.1421331 -0.03742174
-0.1892184 -0.35079658 -0.015201444 -0.21248756 -0.42355514 -0.23539692 -0.04082941 -0.22573303
-0.023291025 -0.34041393 0.027416939 -0.116881475 0.088759586 -0.010306921 -0.16334252 0.017426964
-0.3913312 -0.17484063 0.06773478 -0.21744925 0.016926812 -0.15880145 -0.036354467 0.049884386

pf2.weight f4 [128, 256]
00000000: b278 a4bd 8815 2c3d d8e7 5d3d c457 393d
00000010: 87fb 80bd bb71 acbe eda0 17be 23ab b5bc
00000020: 3344 c53d 1d67 24bd c7e8 4a3d e65c 053d
00000030: 2387 ab3d 6203 ef3c bbfe 14bd 3ca8 e1bd
00000040: 4fe7 993d ff82 dfbd 1ff6 103d 6e34 a43d
00000050: 16eb 87bc 128c 67bd b82a 64bc b3c7 13be
00000060: b1d2 443d dcda 343d fcda 543d 4410 20bd
00000070: 4f5c 993d 9240 13bd d23d 9b3d 5dd7 c73d
00000080: 37dd fabb a8c4 ea3c 5e54 993c 65c5 f5bb
00000090: 4c88 133d ac9c 343d 0bf5 24be 4eb4 01be
000000a0: 6d98 1dbd 3a71 563d 1f3b aebc 851c 94bd
000000b0: a54e a83d 9c92 ca3d b190 573d 54d3 75bd
000000c0: 0981 fb3c 684f e63c 8820 12bc a6df cf3c
000000d0: ab62 083c 4024 f03c feb0 b33d 38e7 9e3d
000000e0: fe72 99bd 9386 b63d 5c49 a13b dc95 ee3c
000000f0: 8978 83bd d5bb 28be 3f02 f93d 002d 7fbe
00000100: de88 a6bd 1d4b 2f3d 3b0a b73c 5217 1dbe
00000110: a093 4ebd a1e6 8b3d a40d 613c 10ea 7fbd
00000120: 1bc3 eebc d4f8 993c cfb8 813d 3dbf 7e3d
00000130: 59b9 323d fc79 f63d 7eb5 2bbd 5971 e53c
00000140: eb8d 92be ba6b dd3a 6f6d 4fbd 992b 71bc
00000150: 78be 2e3c d513 643d 07f1 163d acab 14bc
00000160: 7ba9 413d 2cf5 cabc e796 ae3d 376f a9bd
00000170: 3e27 84bd 6615 8d3d 66d0 8a3c de41 4abc
00000180: 96fa 423d 59a9 95be 2a4c b23c 1202 1b3d
00000190: 7a77 f93c 674d e63d b3dd eebc 9399 7f3e
000001a0: ef9f 2a3d ee2d 07bb 0778 053d eb6a eebc
000001b0: 471f 32be 6e40 08bd 3983 0fbd 7b7b b63d
000001c0: d9c7 9bbd 6161 d7bd fb87 3c3d 4c74 433d
000001d0: 860d c23d 2062 7bbd 422f d8bc 2a7e aa3d
000001e0: f2a1 b33d 74e7 19bd 3ec0 8c3d 2d06 643d
000001f0: ed27 1ebd 2f95 b03d 94c5 ad3d 6584 dd3c
00000200: b116 283c 0474 2f3d 83c7 acbd cf8d 9cbc
00000210: dcd9 1d3d d45c 1bbe 98cf 5fbe e250 e9bb
00000220: 940b 82bd a732 c1bd dfc3 913d caeb 01be
00000230: 6389 c3bb 8471 823d a7fa d9bc b64a 3d3e
00000240: d2f2 c33d f6e8 f43d d62a 143d 48ca 6ebd
00000250: 6212 d9bd 0891 863d 01a9 bcbc 182f 18bd
00000260: c64e b7bd 41d5 123d 5cf8 65bd 1c1d fb3d
00000270: 2e81 2a3e d063 fe3d aeb6 9e3d f18e c3bd
00000280: cca7 86bc 3892 313d 4ffe 02bd 3e3b bb39
00000290: 9e32 54be e54b 38be 5b09 d5ba 86e3 e93d
000002a0: a8f5 613d a02d 853d 18ce d5bd f870 c03d
000002b0: 7f57 87bd 0610 87bd 73c9 7d3d 9a06 113c
000002c0: 4035 c13d b554 b63d 7e6c a9bc 8e17 063e
000002d0: a7d4 8ebd 42cf 5b3c 75c3 263d f47f 1e3c
000002e0: 843e 773d 423a 72be 0990 e53d daa5 7a3d
000002f0: 3e6a 733d 0b50 90bd 19ca 99be 10db 523d
00000300: 9336 a83c 78e6 a43d 8d3d a7bd 84a0 753d
00000310: 0b94 703d 8f90 8c3d 1d30 913d 6103 f43c
00000320: c3a4 6ebb c178 ba3c 819f 4dbc b3b9 84bd
00000330: be0f 5c3d 6d87 1cbd 037e 91bd 8605 903c
00000340: fac9 073e 193e 8d3d 59ef d83c 328a 2fbd
00000350: 55e9 01bd f691 44bd 96e9 e63d 2bac 8b3d
00000360: dd5b fc3b 200c 29ba 9a02 cf3d 0aba 53bd
00000370: c64e 683d d69f fc3d b4e0 3f3c e38e edbc
00000380: ea26 8dbc fb3b 203c bd2a b53d c33c bdbd
00000390: 09a0 febd 60f7 b3bc 76f8 cdbd 8bdf c8bb
000003a0: b0e8 373d 8d76 e3bd 014c 123d a8c0 acbc
000003b0: 46ce 2abc 11ec 04bd 81eb 873c adc0 4a3c
000003c0: 7cc3 6d3d 710b 72bc f0c2 2c3d ddc1 19bd
000003d0: 3302 41bd b855 003d 24a7 07bc 64ec 66bc
000003e0: 09de c13d 4313 243d 4504 2abc b2fb 89bd
000003f0: f5c5 df3c dec1 903d b6e7 423a 117d 583c
-0.08030833 0.04201272 0.05417618 0.045249715 -0.06297975 -0.3368052 -0.14807482 -0.02217633
0.096321486 -0.0401374 0.0495384 0.032559298 0.08375385 0.029176418 -0.036375742 -0.11018416
0.07514822 -0.109136574 0.03539097 0.08017813 -0.01659159 -0.056530066 -0.013926201 -0.14431648
0.048052493 0.044154033 0.051966652 -0.039078012 0.074883096 -0.03595025 0.07580151 0.09757874
-0.0076557654 0.028658226 0.018716987 -0.007500338 0.036018655 0.044094726 -0.16109101 -0.12666437
-0.038475443 0.052354075 -0.021268426 -0.07232002 0.08218125 0.09891245 0.052628223 -0.06001599
0.030701177 0.028114036 -0.008918889 0.025375199 0.0083243055 0.02931416 0.08773993 0.07758945
-0.07492636 0.08912387 0.004922075 0.029124193 -0.06419475 -0.16477902 0.121586315 -0.2491951
-0.08131574 0.042796243 0.022343745 -0.15340927 -0.050433755 0.06831098 0.013736162 -0.06247908
-0.029145768 0.018795408 0.063340776 0.062194098 0.043633793 0.120349854 -0.04192113 0.02800815
-0.286239 0.0016893067 -0.050641473 -0.014719867 0.0106655285 0.055682976 0.036850955 -0.009074133
0.04728077 -0.02477511 0.08524876 -0.08273166 -0.06452797 0.06888847 0.016945075 -0.0123448055
0.04760226 -0.29230765 0.021764833 0.03784377 0.030452479 0.11245232 -0.029158449 0.24960928
0.04165643 -0.0020626741 0.03258517 -0.029103717 -0.17394744 -0.03326457 -0.035037253 0.08910271
-0.07606477 -0.105166204 0.04602812 0.04771833 0.09475236 -0.061372876 -0.026389722 0.08324845
0.08771123 -0.037574247 0.06872605 0.055669952 -0.038612295 0.086222045 0.08484951 0.02704067
0.010259316 0.04283525 -0.08436491 -0.019110588 0.038537845 -0.1517213 -0.21856534 -0.0071202377
-0.063498646 -0.09433489 0.071174376 -0.12687603 -0.0059673055 0.06369308 -0.026608778 0.18485531
0.09567799 0.11958496 0.036173664 -0.05829838 -0.10599209 0.06570631 -0.023029806 -0.037154287
-0.08950572 0.035847906 -0.056145057 0.122614115 0.1665084 0.124213815 0.07749687 -0.09548748
-0.016437434 0.043352336 -0.03198081 0.00035711558 -0.20722434 -0.17997701 -0.0016253398 0.1142035
0.055165917 0.06502843 -0.104397 0.09396547 -0.066084854 -0.06594853 0.061959695 0.008851672
0.09433985 0.08902875 -0.020681616 0.13094923 -0.06974154 0.013416113 0.040713746 0.009674061
0.060362354 -0.23655036 0.11209113 0.061193325 0.059427492 -0.07046517 -0.30037 0.051478446
0.020533836 0.08051771 -0.08166037 0.059967533 0.058734935 0.0686351 0.07089255 0.029786767
-0.0036414124 0.022762658 -0.012550236 -0.06480732 0.05372595 -0.03821509 -0.07104113 0.017580759
0.13260642 0.0689661 0.026481317 -0.042856403 -0.031716663 -0.04799076 0.11275022 0.06819948
0.0077013806 -0.0006448645 0.10107918 -0.051691093 0.05671575 0.12335174 0.011711288 -0.028998798
-0.01723047 0.009779925 0.08846042 -0.09240105 -0.12432868 -0.021968544 -0.10057156 -0.006130164
0.044899642 -0.11106596 0.035717014 -0.02108796 -0.010425156 -0.032451693 0.01659179 0.012375039
0.058047757 -0.014773236 0.042178094 -0.037538398 -0.047121238 0.031331748 -0.0082795955 -0.014094446
0.09466178 0.040057432 -0.0103769945 -0.0673746 0.027316073 0.07068227 0.00074350403 0.013213412

pf2.bias f4 [128]
00000000: 7777 913d a95f da3d ca14 d93d 1f32 cd3d
00000010: 0081 af3d 2c00 84be 8030 323d a383 babd
00000020: d952 d13c ee64 d83d 2894 d2bd 1dbc e63c
00000030: dbed ab3d 6f1a 9d3c ff7b fb3c f6cb 87bc
00000040: 5187 afbd fdef 2b3d 1156 cb3c 64f0 2f3e
00000050: a807 933d e510 413d 343b 2e3e 7e6c e63d
00000060: 4a5e 773d 6f8d 20bd 12e2 f13d db9d 523e
00000070: 5076 6b3d 99df fd3d e935 03bc 9a30 d6bd
00000080: 9ae1 0e3e c92f 9d3c 75e4 113e 2c85 5ebe
00000090: fb29 863d 4c4d 943c fe84 633d 8f68 fc3c
000000a0: 9133 043e 4b92 a2bd 1c9f 89bd 5a46 143e
000000b0: 8cef 81be 9785 563d 6ac4 893b 8b61 993d
000000c0: 333a 21be 9dea d33c 20f7 78bc 6264 f0bc
000000d0: bdf2 88bc d97a a7bc 926c cf3d d6bb c53c
000000e0: e8d8 033e ea41 533d f4ea 453e 0fad f8bd
000000f0: 3a4c 2c3e 0f45 da3c ff25 a43d 5af3 5cbe
00000100: 20c4 53bc 583e 843d 604d c63d 3265 2abe
00000110: 4ffc ff3d 6596 603e e325 b63d 516f 88bd
00000120: 8d7a 473d fdbd a63d 4f6d 013e 1054 42be
00000130: 0551 303d 2c60 1dbc e64c 10be 1860 8e3d
00000140: 5972 493d 80da 92bd 948d 15bd 0ef7 b2bd
00000150: feac 79bc 9f90 423e f4b7 f0bc e50d cb3d
00000160: 6ae8 203d 77cf 88bc a066 e33d 0a57 cf3d
00000170: c2e4 d43d a210 423c 6cc3 843d 0884 193e
00000180: f306 523d 4a7a fd3d 5325 86be 0026 863d
00000190: 7a12 aabe 6293 2ebd ef6f 193e a668 813d
000001a0: 3044 a2bb 8ce9 9d3c 0549 09be 3c68 c4bc
000001b0: 42c8 0f3d aeb0 c0bc 3241 fd3d f23f dd3c
000001c0: 77e5 d43d 7477 233d 9323 ce3d 1f6e 823d
000001d0: cb24 a23d 3328 74bd 35c6 b4bc 8a59 d73d
000001e0: 811d 813d b7a0 63bd cec5 573e 5f8d 00bd
000001f0: ed94 3cbd a0ab 623e 4c03 4cbc 1315 533e
0.07102864 0.10662777 0.10599668 0.100193255 0.08569527 -0.2578138 0.043503284 -0.09107139
0.0255522 0.10566126 -0.10282165 0.028165871 0.08394977 0.019177644 0.030698774 -0.016576748
-0.085707314 0.041976918 0.024821313 0.17181545 0.07179195 0.047135253 0.17014772 0.11251162
0.060392655 -0.03919738 0.118106976 0.2056803 0.05748588 0.123961635 -0.008008459 -0.10458489
0.13953248 0.019187825 0.14247306 -0.21730489 0.06550976 0.018103264 0.055546753 0.030811576
0.12910296 -0.079380594 -0.06719801 0.14479962 -0.25378072 0.052373495 0.0042043226 0.07489308
-0.15744857 0.025868708 -0.015195638 -0.029344741 -0.01671731 -0.02044432 0.1012813 0.024137419
0.12875712 0.051576532 0.19327909 -0.12142383 0.16825953 0.026644258 0.0801506 -0.21577206
-0.012925178 0.064572036 0.09682727 -0.16640165 0.12499296 0.21932371 0.08893945 -0.06661857
0.048700858 0.08141706 0.12639354 -0.1897738 0.043046016 -0.009605449 -0.14091834 0.06951922
0.049181316 -0.07170582 -0.036511973 -0.08738528 -0.015238998 0.19000481 -0.02938459 0.099147595
0.039284147 -0.01670049 0.111035585 0.10124023 0.103951946 0.011844786 0.06482586 0.14991772
0.05127616 0.123768404 -0.2620035 0.06550217 -0.33217221 -0.042621024 0.14984106 0.06318788
-0.0049519762 0.019276403 -0.13406761 -0.023975484 0.03510309 -0.023521747 0.12365951 0.02700803
0.103953294 0.03990884 0.10065379 0.0636866 0.07917174 -0.05960865 -0.022067169 0.10515125
0.063044555 -0.05557319 0.2107155 -0.031384822 -0.046040464 0.22135782 -0.012451958 0.20613508

pf3.weight f4 [64, 128]
00000000: a394 fd3d 421b 353c 4eb4 193e 4633 2ebb
00000010: cf77 83b9 980e 06be 4e32 af3d d663 b8bc
00000020: 9edb 9e3d df4b 063d 4c82 e73d 93af bebd
00000030: 8731 c13d 52c0 d43b b0b6 e9bd afbf b13d
00000040: fd03 563d fa1f 85bd aaf8 c4bc d783 3cbd
00000050: 4260 843c 3c26 d53d cd3d a03d 936e cbbd
00000060: e1ab df3d 011e 163e 715d 4c3e 2d3e 093d
00000070: 62b5 193d 3967 5ebc 9363 ee3d 6908 833e
00000080: 08aa f3b9 350b b73d 4d9f 713d 9869 c6bb
00000090: aff7 743d a934 4dbd a642 af3d 0096 cf3b
000000a0: 7eb9 a73b 1ee2 0a3d 4acf d5ba 753f d5bd
000000b0: 94d5 5cbd ee5a 8ebd 5f74 48bb b444 d03c
000000c0: 728e 58be 8042 c53d 0f5e c4bc 12fd 463d
000000d0: 4c5a 94ba 9265 613d 700c 70bd 083e c6bd
000000e0: 11b6 573d 6802 153d af5f efbd 59e0 b83d
000000f0: fc4b 8b3d 8d2b 58bc 8823 323d 376b e1ba
00000100: 82a5 34be 2843 7f3d b170 babd ad3d 17bd
00000110: ed6c 443d 99bd 4bbc 25a1 fb3d fb67 80bd
00000120: 201f 9b3d daec e6bc 3f76 093e f141 0cbe
00000130: e9a3 163d 89c8 8b3c 4d34 31be 02cb 883d
00000140: 571f b8bc 66f7 d33c 2250 a4bc 3a43 aa3d
00000150: baa2 843d 6791 3fbd 5ab9 5dbd be04 24bc
00000160: bb03 a2bc e24a c8bd b452 f83d 6476 483d
00000170: fe12 ed3d edd8 ae3d 48f3 003d 2cea 3fbd
00000180: 5493 3d3d 67b1 b4bc eda7 31be 63c5 143d
00000190: 34dd 8dbe 29e3 cd3c d8ce d83d 20ea 09bd
000001a0: 2e87 f33d bd85 11bd ba70 bdbd 0658 dcbd
000001b0: 7f66 d4bd 38da c9bd 5b42 c63c 0bd9 913d
000001c0: 3a4e 4b3d 5d69 86b9 388c 87bd da4f d53d
000001d0: 521f f6bc eab2 e23d 6e9d 9a3d b831 1ebd
000001e0: e7a7 95bd 3ab1 1bbe 22d2 77bc ce03 363c
000001f0: 3114 613c d2e5 35bd 337d 17be 2e2f 4b3d
00000200: fc98 f23d f7c5 a23d adcf 3d3e baaa 41bd
00000210: 8b1e b1bd 3c36 2f3e 93b1 b5bc a844 533d
00000220: 72c2 abbd 21bb cc3c ac9d cabb fe8a b83d
00000230: 7b8f 97bd 83fe 923d a330 a13c 3e09 00bd
00000240: 265c d8bb 2568 b2bc 71a1 243e ec17 0ebb
00000250: 849f 0c3d f14d f5bd 7c5b 803d eda6 7cbd
00000260: 2f7e 9e3c b4ee 833d 9e54 91bd a52e 093e
00000270: cac5 c73d 067c be3b 0a9a 87bc b5ff 11bd
00000280: c4fc be3b 9f63 873d 304c 783d 0416 003c
00000290: 13f7 5c3d b6d3 b1bd 0f1f 623e 9a0a 5bbd
000002a0: ae23 8a3d 2224 25bd cd17 f1bd 4b54 02bd
000002b0: a34e c63d 0d06 283d 0e09 903d 05c3 663d
000002c0: 01db 613d 868d 43bd 7467 a53d 19d0 503d
000002d0: 9678 ca3c 4286 0bbc cc24 813c e0d3 56bd
000002e0: afc8 2abd a3ae 123b 0a13 e13d 7483 89be
000002f0: 21f7 b8bd 8d0b 32bd 8859 4ebd eaf6 eebc
00000300: 074e a73b dd29 063d 2824 553a 56e9 473d
00000310: 21d8 9fbd e360 753c 6ff2 433a 3d63 bcbd
00000320: 01fb 803d 3b46 92bd a67c 283e ceb9 323c
00000330: 3ba7 713d 1639 2cbb 8ef1 7f3d f28f f43d
00000340: e17b 053e 4cd9 4c3d 1373 2dbe 5ad0 923c
00000350: e7df 5a3d f914 9c3d 88a2 273e 0eda 8d3d
00000360: 0ee9 a33d d7f6 b73d 8a91 123e 95a7 bb3c
00000370: 5a68 1bbc be27 0e3c a8c6 bd3c 9192 283d
00000380: 951e d03c 92b7 b2bc aade c23d d0b4 c83d
00000390: c4f2 8a3d bd15 dbbd 505a 8c3c be6f c1bc
000003a0: e472 b2bd cb2b 4a3e 3ce3 523d c6df fe3d
000003b0: f772 473b af63 cbbd ae11 b4bc 5ef2 883d
000003c0: cbc6 96bd c400 e7bb c951 b6bd df7b c43d
000003d0: 8f71 57bd 9769 3a3d 1d5a 8f3d 139c 873d
000003e0: faf4 343d 1aa2 553d ee9b 09bd 8d1e 8abd
000003f0: 6e91 febd 48a9 e13d b8f2 fbbc efab 943c
0.12381866 0.011053862 0.15010187 -0.0026580854 -0.0002507553 -0.13091505 0.08554517 -0.022508543
0.077567324 0.0327872 0.11304149 -0.09310832 0.09433275 0.006492653 -0.11411798 0.08679139
0.052249897 -0.0650024 -0.024044354 -0.04602417 0.01615918 0.10407683 0.078242876 -0.099332
0.10921455 0.14659883 0.1995752 0.03350656 0.037526496 -0.013574415 0.11640086 0.25592354
-0.00046475255 0.089376844 0.05898981 -0.006055068 0.059806522 -0.05009905 0.08557634 0.00633502
0.005118548 0.03390705 -0.0016312387 -0.10412494 -0.05391462 -0.06950937 -0.003058694 0.025423385
-0.21148089 0.096318245 -0.023970632 0.04858119 -0.0011318414 0.055028506 -0.05860561 -0.096798
0.052663866 0.036379248 -0.11688172 0.09027166 0.06801602 -0.013193977 0.043490916 -0.001719809
-0.17641261 0.062319905 -0.091035254 -0.036924053 0.047955442 -0.01243534 0.12286595 -0.06269833
0.07574296 -0.028189112 0.13424014 -0.1369703 0.03677741 0.017063396 -0.17305107 0.06679346
-0.022475882 0.025874805 -0.020057742 0.08313604 0.0647635 -0.046769526 -0.054131843 -0.010010896
-0.01977717 -0.09779908 0.12125149 0.04894103 0.11575888 0.08537469 0.03148201 -0.046854183
0.04628308 -0.022057248 -0.17349215 0.036321055 -0.27707827 0.025132732 0.10586327 -0.033670545
0.11891018 -0.035527933 -0.092500165 -0.10758977 -0.10371112 -0.09856075 0.024201563 0.07121476
0.04963515 -0.00025636973 -0.066185415 0.10415621 -0.030044232 0.110692814 0.075495586 -0.038621634
-0.073074155 -0.15204325 -0.015125783 0.011109306 0.013737724 -0.044408627 -0.14793853 0.04960554
0.11845586 0.07947915 0.18536253 -0.04728196 -0.08648404 0.17110533 -0.0221794 0.051579148
-0.08386697 0.024991574 -0.0061833467 0.09010886 -0.074004136 0.071774505 0.019676512 -0.031258814
-0.006602782 -0.021778176 0.1607721 -0.002168174 0.034331813 -0.11977757 0.06267449 -0.06168263
0.019347278 0.064420134 -0.070962176 0.133967 0.09754522 0.0058131246 -0.016552944 -0.03564425
0.005828472 0.06610798 0.060619533 0.007817749 0.053946566 -0.08682959 0.2208216 -0.053476907
0.067450866 -0.040317662 -0.11772118 -0.03181867 0.096829675 0.041021395 0.07032977 0.05633833
0.0551405 -0.04774239 0.08076373 0.050979707 0.024715703 -0.008515896 0.015764616 -0.052448153
-0.041695293 0.0022381924 0.109899595 -0.26858103 -0.09031511 -0.043468047 -0.050378352 -0.029170472
0.005105737 0.032754768 0.0008130693 0.04880651 -0.07804895 0.014976713 0.0007474785 -0.09198616
0.06297875 -0.07142302 0.164538 0.010908557 0.058997374 -0.0026279143 0.062486224 0.11941518
0.13035537 0.050011918 -0.16938429 0.017921615 0.053436186 0.07621188 0.16370595 0.06926356
0.08003436 0.08982628 0.14313331 0.022907058 -0.009485329 0.008676467 0.023166016 0.0411554
0.025405208 -0.021816049 0.09515126 0.09800112 0.06784585 -0.106975056 0.017132908 -0.023612853
-0.0871332 0.19743268 0.05148624 0.12445025 0.0030433515 -0.099311225 -0.021981087 0.06686853
-0.073621355 -0.007049652 -0.08902318 0.09593939 -0.052598532 0.045510855 0.069996096 0.06621566
0.04417894 0.052156545 -0.03359597 -0.06744108 -0.12430082 0.11018616 -0.030755386 0.01814839

pf3.bias f4 [64]
00000000: 57b0 903d 7be7 113e b227 e9ba 4753 3c3e
00000010: e72d cfbd a10a 9d3c 21f5 b53c 0049 4abd
00000020: a0ff cd3d 7692 1abd 9e7d 49bd d97c 0e3e
00000030: 3046 213e 267c 1f3e 55b0 9dbd 57f3 a73d
00000040: 0766 193c 1185 f7bc 4c23 063e 8828 3f3d
00000050: 9ca4 17bb 6d41 9b3d 313c 573a 2d53 063e
00000060: 0f85 9b3d 5025 d33c c5d7 26bd 277b 2a3e
00000070: 9a93 da3d 1a9a 193e 792d 14bc 4a52 503e
00000080: bb28 133e 48d6 2cbc 9ce8 ac3b 9542 1a3e
00000090: 5c4e e63d 8165 dc3d 9fdd fc3c 980a 26bf
000000a0: dc03 e0bd 28b7 19bc 0a17 9abd 3ce7 7abe
000000b0: c352 f83d 31ca 1b3e d078 033e e6eb a63d
000000c0: 6b9f 1c3e 7673 193e 72d5 18bd f1c3 293e
000000d0: c0d0 0b3e 58f9 6d3d d50f 0c3d ffa9 7cbd
000000e0: 8296 1ebd a825 a6be 580c 4c3e 7540 ca3d
000000f0: d32a 903c 6fd4 8bbd 7883 3b3e 39a2 3abd
0.07064884 0.14248459 -0.0017788319 0.18391143 -0.10116177 0.019170107 0.022211613 -0.049386024
0.10058522 -0.037737332 -0.049192064 0.13914813 0.1574943 0.15574703 -0.07699648 0.0820071
0.009362704 -0.030214818 0.13099402 0.046669513 -0.0023138886 0.07580838 0.00082105683 0.13117667
0.07593738 0.025774628 -0.040733118 0.16648541 0.10672684 0.15000191 -0.009044045 0.20343891
0.14371006 -0.0105491355 0.0052767526 0.15064462 0.112454146 0.10761548 0.030867396 -0.64859915
-0.10938236 -0.009382047 -0.075239256 -0.24502271 0.121251605 0.15213849 0.12839055 0.08150463
0.15295188 0.14985451 -0.037312932 0.16578652 0.1365385 0.05809912 0.034194786 -0.06168556
-0.038717754 -0.32450604 0.19926584 0.098755755 0.017598545 -0.06827628 0.1831187 -0.045564864

pf4a.weight f4 [64, 64]
00000000: a04f 123d 62b2 05be 8988 b13c e0d2 3d3c
00000010: c471 52bd c908 823e 90d8 473e 5bd6 3fbd
00000020: 1e3e 64bc 50d1 9abc 3a00 e23d 2080 8b3d
00000030: b8e3 103c 4c25 943d 5f54 a8bd 816f 14be
00000040: a3e8 efbc ff17 c33c 2fc3 3f3e 8c4e 10bd
00000050: 1a60 1c3d 159f 153e 0a1e 023e 487a c53d
00000060: c74d a83d 53da cc3b 276d 383d aeac ed3d
00000070: e68e 1dbe 1a8b a73d ef6e 533c fe59 643e
00000080: b910 44be b600 8c3d 4cf3 bfbd d838 96be
00000090: 4efc 35be 9def e6bd c734 a43d 7aaf 20be
000000a0: 0844 c2bd 003f 4abc ae68 973d a1ed de3d
000000b0: 791b 0abd 891f cb3b ad76 d13d af5e a73d
000000c0: 7eb2 cfbd a96e 983d 2ef3 7dbd 93d4 633e
000000d0: 3cc4 54be 6fc6 5b3d d272 f23d 7df8 74bd
000000e0: ea6b 4cbe 93b0 0b3d cf47 01be 4028 2abd
000000f0: bab1 e6bd 3155 c9bb e5f1 8fbd a8de 99bd
00000100: fd13 19bd c122 08be 74da 383d aefb e53c
00000110: a0a6 e9bd 46f8 38bd f57e bb3d 3530 39bd
00000120: 9e45 81bd a042 48bb 402d c6bd 7226 e83d
00000130: 0c07 d2ba 6b81 933d 31d8 a2bd 59b7 acbb
00000140: 2753 a9bd 7c80 cabd 2a81 67bc a0ef 87bd
00000150: 5bb9 c03d 1854 af3d 13cc 5e3d fd90 e7bb
00000160: 18f6 a6bd 8b44 e43c 569a 89bd a667 2c3d
00000170: 4cb3 64bd ff1f 9dbc 1a1b e33d 3d63 c6bc
00000180: fbd9 b3bd 0355 9c3d 840e 91bc 19cc 42bd
00000190: 3134 1dbd 30df 8ebd e0db c33c 58c2 b2bc
000001a0: d92b 7cbd a20d 0fbe 5bf6 913d 48d9 86bd
000001b0: 20fc 04bc 7b3e 88bd eea4 813c 389e c0bd
000001c0: a9a3 dabd df5c 54bd b3bc 1abe c28c e2bd
000001d0: 8d28 bdbd b995 8c3d 2cd7 c1bd ef1a 5c3d
000001e0: 0213 283c e1ce a53c 2660 2abd ca07 bb3d
000001f0: 8cf2 6abc 72a4 6c3d 9c10 2fbd edae 653d
00000200: 0480 cc3d 0469 783e d2cf 823b 9b1b 043d
00000210: 843f 25bc 3a45 21be 86ec d93d d5ab 343d
00000220: e876 e8bd 17a1 f8bd 696c 1cbc e609 62bd
00000230: 78e2 993d 787a 10bd 2943 14bd b10e d33c
00000240: 47ca 63be 006c 273e 7364 033d 5e62 c63d
00000250: 5416 2f3d 2107 e5bd c7eb 743d 7505 073e
00000260: 88f0 ea3d d0f1 aabd 2c8f 1cbd 6818 dc3d
00000270: dc36 38be f849 09be 5812 fb3d e7dc 183d
00000280: 97de ce3d 4b33 073e 9a37 ae3d afda 403d
00000290: 038b 2c3e 7c7a 873b b061 113e 8eff 38be
000002a0: ec08 363c b034 0dbd 89b4 1dbe 0100 08be
000002b0: c788 893d ba4f bcbd 10f7 213e 5f46 b93d
000002c0: 1bdc a8bd 4a10 18bd 84a8 64bd 4975 62bd
000002d0: 89b0 beba b6e2 cfbd bbe7 ca3d bbbb 5b3e
000002e0: 27ba 593e 7ee2 aabe 9a9d 10be 5154 83bd
000002f0: 551f 82bd c374 3a3d e21d d63c 2edc ee3d
00000300: d198 c73d d56e edbd 225f 0c3d c483 d3bd
00000310: e084 493c 2380 e23c b326 7cbd af0d ff3d
00000320: 7e6c ac3b ad9f 11bc 9072 febc 50b8 d9bb
00000330: 68d2 f33c 313b c0bd 9199 89bc d97a 653d
00000340: 342f adbd 51f2 323e e275 25bd 55e1 043e
00000350: 9661 ac3d b421 30bd 9051 73bd 0723 e8bd
00000360: 90b3 353d 623e 163e 0be1 1f3d 345f 493d
00000370: 0d3a debc bc2d 37be 541d 9b3d dbd0 203d
00000380: 49e5 ae3d 5e12 8fbd a1de 453e aa92 3f3d
00000390: 8a6b 93bd 87e1 ff3d 20a3 e8bd 6c0c 603b
000003a0: a462 12bd cfa4 3f3e 5306 a83c 3fc2 9ebd
000003b0: 3afc bdba 6d10 abbd 1f9f 8c3d 8107 b33d
000003c0: 2af2 dd3d 5327 f43d bf68 c7bc 4ac0 e1bd
000003d0: 395e 5cbd bfdf 3c3c a150 b6bc efa1 6bbd
000003e0: d3ec 0e3e b76b 863c 1834 0e3d 73e1 053e
000003f0: 0d8e 453d 556a 9a3d f30b 5d3c 43c4 d53c
0.035720468 -0.13056329 0.02167155 0.011585921 -0.051378027 0.25397328 0.19516206 -0.046835285
-0.0139308255 -0.018898636 0.110351995 0.06811547 0.008843355 0.07233676 -0.082192175 -0.1449566
-0.029285735 0.023815153 0.187268 -0.035231158 0.038177587 0.14611466 0.12706771 0.09642464
0.0821796 0.006251612 0.04502597 0.11605202 -0.15386543 0.081808284 0.012904867 0.22299954
-0.19147004 0.06836073 -0.09372577 -0.29340243 -0.17772028 -0.11276171 0.08017879 -0.15691939
-0.09485632 -0.012344122 0.07393013 0.10885168 -0.033717606 0.0061988276 0.10227714 0.08172356
-0.101414666 0.07442982 -0.061999492 0.2224906 -0.20777982 0.053656038 0.118383065 -0.05980729
-0.19963041 0.03410394 -0.12625049 -0.04154229 -0.112643674 -0.006144189 -0.070285596 -0.075131714
-0.037372578 -0.13294508 0.045130208 0.028074112 -0.11408734 -0.045158647 0.091550745 -0.04521199
-0.063121065 -0.003055729 -0.096765995 0.11335458 -0.0016023829 0.07202419 -0.079513915 -0.00527088
-0.08267813 -0.09887788 -0.014129916 -0.06637502 0.09410354 0.085609615 0.05439384 -0.0070668445
-0.081524074 0.027864715 -0.0671889 0.042091034 -0.055835053 -0.019180296 0.110891536 -0.024217242
-0.08781811 0.07633402 -0.017707117 -0.047557924 -0.03837985 -0.069761634 0.023908556 -0.021821186
-0.061565254 -0.13970044 0.07127067 -0.06584412 -0.008116752 -0.06652542 0.015825715 -0.09405178
-0.10675747 -0.05184638 -0.15111046 -0.11062004 -0.0923625 0.06864495 -0.09464869 0.053736623
0.010258438 0.02024025 -0.0415956 0.09132345 -0.014340054 0.057774015 -0.04274045 0.056075025
0.099853545 0.2425881 0.0039920593 0.03225289 -0.010085944 -0.15749064 0.106408164 0.044109184
-0.113508046 -0.121401004 -0.009547331 -0.05518522 0.075138986 -0.035273045 -0.03619686 0.025763841
-0.22245131 0.16349792 0.032078218 0.09686731 0.042745903 -0.11183 0.059795167 0.13185675
0.11471659 -0.08346903 -0.038222477 0.107468426 -0.17989677 -0.13407123 0.12259358 0.037320044
0.101010494 0.1320316 0.08506699 0.047083553 0.16849904 0.0041344743 0.14197421 -0.18066236
0.011110526 -0.034474075 -0.154009 -0.13281251 0.06715541 -0.09194894 0.15816903 0.09046625
-0.08245107 -0.03712491 -0.05582477 -0.055287633 -0.0014548461 -0.101506636 0.0990748 0.21458332
0.21262418 -0.33375925 -0.1412262 -0.064125665 -0.06353632 0.04552151 0.026137296 0.1166309
0.09745944 -0.11593405 0.034270413 -0.10327867 0.012299746 0.027648991 -0.061560344 0.12453782
0.0052619567 -0.008888167 -0.031060487 -0.006644286 0.029763415 -0.0938629 -0.016796859 0.05602536
-0.08456269 0.17475249 -0.040395625 0.12976582 0.084170505 -0.04300089 -0.059403956 -0.11334806
0.044360697 0.14672235 0.039032977 0.04916306 -0.02712729 -0.1788854 0.07573953 0.03926168
0.085398264 -0.06985925 0.19323207 0.04677073 -0.07198246 0.12494188 -0.113592386 0.0034187092
-0.035738602 0.18715213 0.020510828 -0.07751893 -0.0014494725 -0.08352742 0.068662874 0.08741666
0.10837205 0.11921563 -0.024341939 -0.11023004 -0.053800795 0.011527955 -0.022255244 -0.05752748
0.13957529 0.016408784 0.03471765 0.13074283 0.048231173 0.075398125 0.013491618 0.026094561

pf4a.bias f4 [64]
00000000: 4002 bcbd f574 653c 1c83 aa3d f6fe 123d
00000010: 4a99 9dbd a26c d23b 1a6f 14be 21e2 93be
00000020: 060c dabc d8e2 923d b5e5 0c3e b24b 543e
00000030: 04f1 383e d50b 4b3e d092 e5bd 1f04 6b3e
00000040: 8397 753d 5421 263e e8b0 debd f9a1 68bc
00000050: dc9d 0cbd bd7a 423c cc4b d03d 729c e93d
00000060: 7206 ee3b 31cc 07be 4eef c1be b01f 6bbe
00000070: edea c9bd e883 303d 17e0 d53d eae4 1bbd
00000080: d641 18be d273 133e 9ee9 293e 0ce4 a73d
00000090: 6434 8c3c 40d0 283e ef10 4abb 33f1 d33d
000000a0: 5dd3 aebd adba 603d 069a 683d 311e c6bc
000000b0: 8f04 0d3e bd71 ab3d a6dd aabd 5f48 9f3d
000000c0: e9ab 1ebe 4bda f33c b958 fa3c 512e ca3d
000000d0: 02d6 d7bd 4d46 8b3d 0f42 a93c 6a38 babc
000000e0: 84e7 fbbd 43a8 e93d 28ad 5d3d 8fb4 12be
000000f0: 2963 803c e4ff a33d 24b7 0bbe ba32 9abd
-0.09180117 0.0140049355 0.083257884 0.03588768 -0.07695253 0.0064216414 -0.14495507 -0.2888346
-0.026617061 0.07172173 0.13759501 0.20732 0.1806069 0.19828732 -0.11209643 0.22950791
0.059958946 0.16223651 -0.10873586 -0.014198774 -0.034330234 0.011870083 0.10170707 0.11406793
0.007263952 -0.13261487 -0.37877887 -0.22961307 -0.09859262 0.043094546 0.10443132 -0.038060106
-0.14868864 0.1439965 0.16593024 0.08197793 0.017114826 0.16485691 -0.0030832847 0.103487395
-0.08536408 0.054865528 0.056787513 -0.024184318 0.1377127 0.08371303 -0.08343057 0.077774756
-0.15495266 0.029767176 0.030559884 0.098721154 -0.105388656 0.06800518 0.020661382 -0.022731978
-0.123000175 0.114090465 0.054120213 -0.1432669 0.015672283 0.08007792 -0.13644081 -0.075292066

pf4b.weight f4 [64, 64]
00000000: 3bfe 4dbd 69e5 35bc 80a2 5d3b 01a4 96bd
00000010: e45e a7bd 763f 07bd 80af 623d 0c2f 23be
00000020: 1aad d6bd 9c15 3cbd cc48 a8bd 92c8 82bd
00000030: 1d70 dfbd 985f 05be d81f 0d3d f6c4 febc
00000040: bee4 8fbc 509b 3e3c 038c ba3d 5850 23bd
00000050: 310e 413d e00d 543d 66e0 b0bd 82f7 97bd
00000060: 8e24 f8bd bea7 fbbd 504e f6bd 0a37 28bd
00000070: 33e9 913d 287b 353d 86b0 ad3d 1391 55bc
00000080: 212d f3bc 4235 90bd b070 89bd 85f2 dabd
00000090: 1620 6c3d d413 5dbc 5e19 c0bd 645c 6c3d
000000a0: 5e86 aa3d 0c4c d6bd 6ec3 d6bd 6451 3c3d
000000b0: c972 e4bd a2a4 65bc eb7a 683c 1084 073d
000000c0: 962a a23b c3bd 1abd 4ca6 febd 3fc7 a7bd
000000d0: 7e6a 89bd 9b1b 3ebd 1019 453d cd36 903d
000000e0: f615 21bc 4aa4 91bd 4851 b4bd 365f 84bd
000000f0: 9529 573c 561d 81bd d61d 8e3d d77f abbd
00000100: 64c8 cebc fe14 8fbd 8c53 d93c 4c0b 89bd
00000110: 72b6 1a3c 0bc3 1abe 2eb8 33bd 91d4 3dbd
00000120: 18a9 d03d c8cc 82bc 7b15 50bd aa60 a5bd
00000130: d798 aabc c39f 21bd 87ec c13b 7291 f83d
00000140: 4152 e9bc f591 c33d baca 693d 6350 f33d
00000150: 1bc9 5f3c cce0 373d d923 603e 33cf f23d
00000160: 9d2e 8e3d 131a 02be dc8d 0e3e e4c5 793c
00000170: cef8 d73d 360d 383d d091 bd3d 8c28 ba3d
00000180: c620 4d3d f535 513d f20e 86be 540d a8bc
00000190: e208 27bd dd0a c73d 49ef dc3c 6c81 7fbe
000001a0: f43f 5f3c bc7e 17be d1db 583d a7df 09bd
000001b0: 05e6 a83d c75c a1bd aff7 c03d 3f3f 52bd
000001c0: 9a51 a63d 86ff f33d bbb6 c7bc 86a8 19be
000001d0: ee9e a6bd 996c 643d bf6c 55bd f221 08be
000001e0: 4cb3 26bd 3e36 3abd 2f11 433d 80be 59bd
000001f0: d8bc 8ebb e247 093d 9b0d b43d 97a1 093d
00000200: f996 ff3d 4b34 3e3e bc1b 73bd 06b6 9a3d
00000210: ef83 1abd 7550 4abe 59f1 cabd 7100 89bc
00000220: ffff f8bd 2249 9dbb 8765 a33d bb25 3dbd
00000230: edb7 2f3e 4d90 b13d cc9b 423d 5042 6a3c
00000240: 39ec 59bd 9bab 8c3d 8260 203e d002 a6bb
00000250: 8992 2ebd 4445 eebc 7464 62bd 4ba5 86bd
00000260: af81 af3d abab 993d dbb0 22bd 8c98 9e3d
00000270: 778b fa3c ba07 323b 9350 7a3b 50da 273d
00000280: f150 7f3d 5618 513b 149f b03d 046d 323e
00000290: e133 ef3c 2ba2 d9bc ff29 813d aa29 6bbe
000002a0: be07 763d 70a7 a03d b026 15be 4371 f7bd
000002b0: 6aa5 a6bd d0ba 1cbe 89e4 37bc 4711 a33d
000002c0: 8d3e 343d 9c17 c5bd 7573 ed3d 8acd 51bd
000002d0: 7512 c83d 4c3c 183d 2c4d 16bd b78a 073b
000002e0: 01ce 6fbd d8fb fe3c 1da0 7e3c 884b ab3c
000002f0: 1622 03be aa2e fb3c ae02 363d 4adc e63d
00000300: fdb0 8bbd 6688 963c 0d0e 7d3d a61b a8bd
00000310: 71ae f0bc d5b1 033e 9ca1 c9bd 80be c2bd
00000320: 89ca 983d 0d11 833d 84da a23d 4dd7 afbd
00000330: d500 4f3d 12f5 7f3d 4597 383c 7035 babc
00000340: 02d0 90bd a4c3 093e 1a33 f63d 64e2 0c3e
00000350: cbeb cdbd 7e12 d1bd 05bd 153d 6883 31bd
00000360: 3bad a73d 8b04 db3d aed3 093e 1320 c03c
00000370: 1ac2 f3bd f162 5cbd 2637 12bd e603 6b3d
00000380: d272 37be 68f0 0fbd de6d 263e 8425 24bc
00000390: ebbe 053e 4536 113e aab8 28be feb7 d0bd
000003a0: ff71 30bd 278c 023e 1e1d 28be 7ae9 89bd
000003b0: 59f9 3b3d 6c97 923b fb30 0cbe 5f34 183d
000003c0: 9b8f d53d 0160 be3d 525e ae3d b018 03be
000003d0: 200e 7dbd 3188 b13c 9b04 203e ce4a 0cbe
000003e0: 9a38 dfbc bd4b d7bd 376c c5bd 70ff bb3b
000003f0: 79e0 103e 87de c6bd 1667 c53d 401c 6b3d
-0.05029128 -0.011102059 0.0033818781 -0.073555 -0.08172396 -0.033019505 0.05534315 -0.15935916
-0.10482235 -0.045919046 -0.0821701 -0.06385912 -0.10910056 -0.13024747 0.034454197 -0.031099778
-0.017565127 0.011633709 0.09108736 -0.039871544 0.047132675 0.051771045 -0.086365506 -0.07420255
-0.12116347 -0.12287854 -0.12026656 -0.041068114 0.07124557 0.044306904 0.08480935 -0.013035077
-0.029684605 -0.07041408 -0.067109466 -0.10690788 0.057647787 -0.013493497 -0.093798384 0.057705298
0.0832641 -0.104637235 -0.10486494 0.045976058 -0.11154706 -0.014016302 0.014189462 0.03308493
0.0049489243 -0.037778627 -0.12434062 -0.081923 -0.06709765 -0.046413045 0.048119605 0.070417024
-0.009831896 -0.07111414 -0.08804566 -0.064634725 0.0131324725 -0.063044235 0.069392845 -0.08373993
-0.025242038 -0.06986426 0.026529096 -0.06691608 0.009442912 -0.15113465 -0.04387682 -0.046345297
0.10188502 -0.015966788 -0.050801735 -0.08075078 -0.020824833 -0.039459 0.005918089 0.121371165
-0.028481605 0.095493235 0.0570781 0.11880567 0.013658787 0.044892117 0.21888675 0.11855926
0.069424845 -0.12705259 0.13921303 0.015244935 0.105455026 0.044934474 0.09256327 0.09089765
0.050080083 0.051076848 -0.26183277 -0.020514168 -0.040779956 0.09718869 0.026969569 -0.24951714
0.013626087 -0.14794439 0.05294401 -0.033660557 0.08246998 -0.07879024 0.09422242 -0.051329847
0.08121033 0.119139716 -0.024379125 -0.15005693 -0.08135782 0.05576763 -0.05210566 -0.13294199
-0.040698335 -0.045461886 0.04762381 -0.05316019 -0.004356008 0.03351582 0.087916575 0.03360137
0.124799676 0.18574636 -0.05935262 0.075542495 -0.037723478 -0.19757254 -0.09909315 -0.016723843
-0.121582024 -0.004799978 0.07978349 -0.04617856 0.17160006 0.08670101 0.04751186 0.014298037
-0.053203795 0.06868669 0.15661815 -0.0050662532 -0.042620216 -0.029085763 -0.05527158 -0.06574496
0.08569657 0.07503446 -0.039719444 0.0774394 0.03058408 0.002716525 0.0038194999 0.040979683
0.06233305 0.0031905374 0.08624092 0.17424399 0.029199542 -0.026566586 0.06306838 -0.22965112
0.060065977 0.07844436 -0.1456554 -0.1208215 -0.08137019 -0.15305638 -0.011223921 0.0796228
0.044004966 -0.09623644 0.11594287 -0.051221408 0.097691454 0.03716688 -0.03669469 0.0020682046
-0.05854607 0.031125948 0.015541104 0.02091004 -0.12805972 0.0306619 0.04443615 0.112724856
-0.06820867 0.018375587 0.061780978 -0.082083985 -0.029380055 0.12860806 -0.09845278 -0.09508991
0.074605055 0.063997366 0.07951835 -0.08585987 0.050537903 0.062489577 0.011266534 -0.02273056
-0.07070924 0.13453537 0.120214656 0.13758236 -0.100547396 -0.10208605 0.036557216 -0.04333821
0.08187338 0.10694226 0.13459656 0.023452794 -0.11902256 -0.053805295 -0.035697125 0.057376765
-0.17914894 -0.03514138 0.16252849 -0.01001871 0.1306111 0.14180858 -0.16476694 -0.10191344
-0.043077465 0.12748776 -0.16417357 -0.06733985 0.045892093 0.0044736173 -0.1369056 0.03715932
0.10427781 0.09295655 0.08514084 -0.12802386 -0.06178105 0.021671386 0.15626757 -0.1370041
-0.02724867 -0.10512493 -0.09639781 0.0057372376 0.1414813 -0.097104125 0.09638803 0.05739999

pf4b.bias f4 [64]
00000000: a695 d7bd 854d 283d 77b1 163e 0641 453d
00000010: 6fd2 20be e868 94bd 8bf2 90bb de7c 00bc
00000020: 1f5b 4f3c 759a 023e 10c0 4fbe 326a 05be
00000030: 985f 103e e316 b1be 34df df3d 332b 22be
00000040: 9f09 073e 4a6c 11bd f5ad c23d 9ab2 d53d
00000050: 9759 023e fe20 603e 969d e1bc cc1f 14bd
00000060: 8ef3 09be e177 6b3c 0191 013c fe63 353e
00000070: da1f b53d 1b9b 693e 4fad 76bd c283 f53d
00000080: 09b1 273d 2c28 84bd d86a 6ebd d44f 17bf
00000090: 2996 2f3e 4e64 b7bc c86b 8c3e 8157 c1bd
000000a0: 75fc f33c ee45 553e 8363 9c3d 492a 95be
000000b0: b6f1 11be 39e2 72bc c15b 003d bac3 b7bc
000000c0: 8c43 013d c721 77be 1767 59bd 1cd0 c7bd
000000d0: 23b5 4b3e b759 bdbd 421d 723d c0ee 3bbb
000000e0: b70b 54bd b7ff bfbd e0e6 c13d d765 f9be
000000f0: f6e7 7e3d 8fe6 dd3d f89b f0be 8e81 083e
-0.1052659 0.041089553 0.14716135 0.048157714 -0.15705274 -0.07246572 -0.0044234446 -0.007842271
0.012656002 0.12754233 -0.2028811 -0.13028792 0.14098966 -0.34587774 0.109312445 -0.15836792
0.13187264 -0.035503663 0.09505836 0.10434456 0.12729488 0.21887586 -0.027540963 -0.036163136
-0.13471815 0.014371843 0.007908107 0.17713925 0.08843966 0.22813074 -0.060223874 0.119880214
0.04094032 -0.06452975 -0.058207363 -0.59106183 0.17147125 -0.022386696 0.2742598 -0.09440518
0.029783467 0.20827457 0.07636168 -0.29133824 -0.14252362 -0.0148244435 0.031337503 -0.022432197
0.03155856 -0.24133979 -0.05307683 -0.097564906 0.19893317 -0.092456274 0.059109934 -0.0028676242
-0.051768985 -0.093749456 0.09467864 -0.4871051 0.062232934 0.10834991 -0.46993995 0.13330671
